node {
  name: "input_image"
  op: "Placeholder"
  attr {
    key: "dtype"
    value {
      type: DT_FLOAT
    }
  }
  attr {
    key: "shape"
    value {
      shape {
        dim {
          size: 1
        }
        dim {
          size: 32
        }
        dim {
          size: 32
        }
        dim {
          size: 3
        }
      }
    }
  }
}
node {
  name: "MobilenetV2/input"
  op: "Identity"
  input: "input_image"
  attr {
    key: "T"
    value {
      type: DT_FLOAT
    }
  }
}
node {
  name: "MobilenetV2/Conv/weights/Initializer/truncated_normal/shape"
  op: "Const"
  attr {
    key: "_class"
    value {
      list {
        s: "loc:@MobilenetV2/Conv/weights"
      }
    }
  }
  attr {
    key: "dtype"
    value {
      type: DT_INT32
    }
  }
  attr {
    key: "value"
    value {
      tensor {
        dtype: DT_INT32
        tensor_shape {
          dim {
            size: 4
          }
        }
        tensor_content: "\003\000\000\000\003\000\000\000\003\000\000\000\020\000\000\000"
      }
    }
  }
}
node {
  name: "MobilenetV2/Conv/weights/Initializer/truncated_normal/mean"
  op: "Const"
  attr {
    key: "_class"
    value {
      list {
        s: "loc:@MobilenetV2/Conv/weights"
      }
    }
  }
  attr {
    key: "dtype"
    value {
      type: DT_FLOAT
    }
  }
  attr {
    key: "value"
    value {
      tensor {
        dtype: DT_FLOAT
        tensor_shape {
        }
        float_val: 0.0
      }
    }
  }
}
node {
  name: "MobilenetV2/Conv/weights/Initializer/truncated_normal/stddev"
  op: "Const"
  attr {
    key: "_class"
    value {
      list {
        s: "loc:@MobilenetV2/Conv/weights"
      }
    }
  }
  attr {
    key: "dtype"
    value {
      type: DT_FLOAT
    }
  }
  attr {
    key: "value"
    value {
      tensor {
        dtype: DT_FLOAT
        tensor_shape {
        }
        float_val: 0.09000000357627869
      }
    }
  }
}
node {
  name: "MobilenetV2/Conv/weights/Initializer/truncated_normal/TruncatedNormal"
  op: "TruncatedNormal"
  input: "MobilenetV2/Conv/weights/Initializer/truncated_normal/shape"
  attr {
    key: "T"
    value {
      type: DT_INT32
    }
  }
  attr {
    key: "_class"
    value {
      list {
        s: "loc:@MobilenetV2/Conv/weights"
      }
    }
  }
  attr {
    key: "dtype"
    value {
      type: DT_FLOAT
    }
  }
  attr {
    key: "seed"
    value {
      i: 0
    }
  }
  attr {
    key: "seed2"
    value {
      i: 0
    }
  }
}
node {
  name: "MobilenetV2/Conv/weights/Initializer/truncated_normal/mul"
  op: "Mul"
  input: "MobilenetV2/Conv/weights/Initializer/truncated_normal/TruncatedNormal"
  input: "MobilenetV2/Conv/weights/Initializer/truncated_normal/stddev"
  attr {
    key: "T"
    value {
      type: DT_FLOAT
    }
  }
  attr {
    key: "_class"
    value {
      list {
        s: "loc:@MobilenetV2/Conv/weights"
      }
    }
  }
}
node {
  name: "MobilenetV2/Conv/weights/Initializer/truncated_normal"
  op: "Add"
  input: "MobilenetV2/Conv/weights/Initializer/truncated_normal/mul"
  input: "MobilenetV2/Conv/weights/Initializer/truncated_normal/mean"
  attr {
    key: "T"
    value {
      type: DT_FLOAT
    }
  }
  attr {
    key: "_class"
    value {
      list {
        s: "loc:@MobilenetV2/Conv/weights"
      }
    }
  }
}
node {
  name: "MobilenetV2/Conv/weights"
  op: "VariableV2"
  attr {
    key: "_class"
    value {
      list {
        s: "loc:@MobilenetV2/Conv/weights"
      }
    }
  }
  attr {
    key: "container"
    value {
      s: ""
    }
  }
  attr {
    key: "dtype"
    value {
      type: DT_FLOAT
    }
  }
  attr {
    key: "shape"
    value {
      shape {
        dim {
          size: 3
        }
        dim {
          size: 3
        }
        dim {
          size: 3
        }
        dim {
          size: 16
        }
      }
    }
  }
  attr {
    key: "shared_name"
    value {
      s: ""
    }
  }
}
node {
  name: "MobilenetV2/Conv/weights/Assign"
  op: "Assign"
  input: "MobilenetV2/Conv/weights"
  input: "MobilenetV2/Conv/weights/Initializer/truncated_normal"
  attr {
    key: "T"
    value {
      type: DT_FLOAT
    }
  }
  attr {
    key: "_class"
    value {
      list {
        s: "loc:@MobilenetV2/Conv/weights"
      }
    }
  }
  attr {
    key: "use_locking"
    value {
      b: true
    }
  }
  attr {
    key: "validate_shape"
    value {
      b: true
    }
  }
}
node {
  name: "MobilenetV2/Conv/weights/read"
  op: "Identity"
  input: "MobilenetV2/Conv/weights"
  attr {
    key: "T"
    value {
      type: DT_FLOAT
    }
  }
  attr {
    key: "_class"
    value {
      list {
        s: "loc:@MobilenetV2/Conv/weights"
      }
    }
  }
}
node {
  name: "MobilenetV2/Conv/kernel/Regularizer/l2_regularizer/scale"
  op: "Const"
  attr {
    key: "dtype"
    value {
      type: DT_FLOAT
    }
  }
  attr {
    key: "value"
    value {
      tensor {
        dtype: DT_FLOAT
        tensor_shape {
        }
        float_val: 3.9999998989515007e-05
      }
    }
  }
}
node {
  name: "MobilenetV2/Conv/kernel/Regularizer/l2_regularizer/L2Loss"
  op: "L2Loss"
  input: "MobilenetV2/Conv/weights/read"
  attr {
    key: "T"
    value {
      type: DT_FLOAT
    }
  }
}
node {
  name: "MobilenetV2/Conv/kernel/Regularizer/l2_regularizer"
  op: "Mul"
  input: "MobilenetV2/Conv/kernel/Regularizer/l2_regularizer/scale"
  input: "MobilenetV2/Conv/kernel/Regularizer/l2_regularizer/L2Loss"
  attr {
    key: "T"
    value {
      type: DT_FLOAT
    }
  }
}
node {
  name: "MobilenetV2/Conv/dilation_rate"
  op: "Const"
  attr {
    key: "dtype"
    value {
      type: DT_INT32
    }
  }
  attr {
    key: "value"
    value {
      tensor {
        dtype: DT_INT32
        tensor_shape {
          dim {
            size: 2
          }
        }
        tensor_content: "\001\000\000\000\001\000\000\000"
      }
    }
  }
}
node {
  name: "MobilenetV2/Conv/Conv2D"
  op: "Conv2D"
  input: "MobilenetV2/input"
  input: "MobilenetV2/Conv/weights/read"
  attr {
    key: "T"
    value {
      type: DT_FLOAT
    }
  }
  attr {
    key: "data_format"
    value {
      s: "NHWC"
    }
  }
  attr {
    key: "dilations"
    value {
      list {
        i: 1
        i: 1
        i: 1
        i: 1
      }
    }
  }
  attr {
    key: "explicit_paddings"
    value {
      list {
      }
    }
  }
  attr {
    key: "padding"
    value {
      s: "SAME"
    }
  }
  attr {
    key: "strides"
    value {
      list {
        i: 1
        i: 2
        i: 2
        i: 1
      }
    }
  }
  attr {
    key: "use_cudnn_on_gpu"
    value {
      b: true
    }
  }
}
node {
  name: "MobilenetV2/Conv/BatchNorm/gamma/Initializer/ones"
  op: "Const"
  attr {
    key: "_class"
    value {
      list {
        s: "loc:@MobilenetV2/Conv/BatchNorm/gamma"
      }
    }
  }
  attr {
    key: "dtype"
    value {
      type: DT_FLOAT
    }
  }
  attr {
    key: "value"
    value {
      tensor {
        dtype: DT_FLOAT
        tensor_shape {
          dim {
            size: 16
          }
        }
        float_val: 1.0
      }
    }
  }
}
node {
  name: "MobilenetV2/Conv/BatchNorm/gamma"
  op: "VariableV2"
  attr {
    key: "_class"
    value {
      list {
        s: "loc:@MobilenetV2/Conv/BatchNorm/gamma"
      }
    }
  }
  attr {
    key: "container"
    value {
      s: ""
    }
  }
  attr {
    key: "dtype"
    value {
      type: DT_FLOAT
    }
  }
  attr {
    key: "shape"
    value {
      shape {
        dim {
          size: 16
        }
      }
    }
  }
  attr {
    key: "shared_name"
    value {
      s: ""
    }
  }
}
node {
  name: "MobilenetV2/Conv/BatchNorm/gamma/Assign"
  op: "Assign"
  input: "MobilenetV2/Conv/BatchNorm/gamma"
  input: "MobilenetV2/Conv/BatchNorm/gamma/Initializer/ones"
  attr {
    key: "T"
    value {
      type: DT_FLOAT
    }
  }
  attr {
    key: "_class"
    value {
      list {
        s: "loc:@MobilenetV2/Conv/BatchNorm/gamma"
      }
    }
  }
  attr {
    key: "use_locking"
    value {
      b: true
    }
  }
  attr {
    key: "validate_shape"
    value {
      b: true
    }
  }
}
node {
  name: "MobilenetV2/Conv/BatchNorm/gamma/read"
  op: "Identity"
  input: "MobilenetV2/Conv/BatchNorm/gamma"
  attr {
    key: "T"
    value {
      type: DT_FLOAT
    }
  }
  attr {
    key: "_class"
    value {
      list {
        s: "loc:@MobilenetV2/Conv/BatchNorm/gamma"
      }
    }
  }
}
node {
  name: "MobilenetV2/Conv/BatchNorm/beta/Initializer/zeros"
  op: "Const"
  attr {
    key: "_class"
    value {
      list {
        s: "loc:@MobilenetV2/Conv/BatchNorm/beta"
      }
    }
  }
  attr {
    key: "dtype"
    value {
      type: DT_FLOAT
    }
  }
  attr {
    key: "value"
    value {
      tensor {
        dtype: DT_FLOAT
        tensor_shape {
          dim {
            size: 16
          }
        }
        float_val: 0.0
      }
    }
  }
}
node {
  name: "MobilenetV2/Conv/BatchNorm/beta"
  op: "VariableV2"
  attr {
    key: "_class"
    value {
      list {
        s: "loc:@MobilenetV2/Conv/BatchNorm/beta"
      }
    }
  }
  attr {
    key: "container"
    value {
      s: ""
    }
  }
  attr {
    key: "dtype"
    value {
      type: DT_FLOAT
    }
  }
  attr {
    key: "shape"
    value {
      shape {
        dim {
          size: 16
        }
      }
    }
  }
  attr {
    key: "shared_name"
    value {
      s: ""
    }
  }
}
node {
  name: "MobilenetV2/Conv/BatchNorm/beta/Assign"
  op: "Assign"
  input: "MobilenetV2/Conv/BatchNorm/beta"
  input: "MobilenetV2/Conv/BatchNorm/beta/Initializer/zeros"
  attr {
    key: "T"
    value {
      type: DT_FLOAT
    }
  }
  attr {
    key: "_class"
    value {
      list {
        s: "loc:@MobilenetV2/Conv/BatchNorm/beta"
      }
    }
  }
  attr {
    key: "use_locking"
    value {
      b: true
    }
  }
  attr {
    key: "validate_shape"
    value {
      b: true
    }
  }
}
node {
  name: "MobilenetV2/Conv/BatchNorm/beta/read"
  op: "Identity"
  input: "MobilenetV2/Conv/BatchNorm/beta"
  attr {
    key: "T"
    value {
      type: DT_FLOAT
    }
  }
  attr {
    key: "_class"
    value {
      list {
        s: "loc:@MobilenetV2/Conv/BatchNorm/beta"
      }
    }
  }
}
node {
  name: "MobilenetV2/Conv/BatchNorm/moving_mean/Initializer/zeros"
  op: "Const"
  attr {
    key: "_class"
    value {
      list {
        s: "loc:@MobilenetV2/Conv/BatchNorm/moving_mean"
      }
    }
  }
  attr {
    key: "dtype"
    value {
      type: DT_FLOAT
    }
  }
  attr {
    key: "value"
    value {
      tensor {
        dtype: DT_FLOAT
        tensor_shape {
          dim {
            size: 16
          }
        }
        float_val: 0.0
      }
    }
  }
}
node {
  name: "MobilenetV2/Conv/BatchNorm/moving_mean"
  op: "VariableV2"
  attr {
    key: "_class"
    value {
      list {
        s: "loc:@MobilenetV2/Conv/BatchNorm/moving_mean"
      }
    }
  }
  attr {
    key: "container"
    value {
      s: ""
    }
  }
  attr {
    key: "dtype"
    value {
      type: DT_FLOAT
    }
  }
  attr {
    key: "shape"
    value {
      shape {
        dim {
          size: 16
        }
      }
    }
  }
  attr {
    key: "shared_name"
    value {
      s: ""
    }
  }
}
node {
  name: "MobilenetV2/Conv/BatchNorm/moving_mean/Assign"
  op: "Assign"
  input: "MobilenetV2/Conv/BatchNorm/moving_mean"
  input: "MobilenetV2/Conv/BatchNorm/moving_mean/Initializer/zeros"
  attr {
    key: "T"
    value {
      type: DT_FLOAT
    }
  }
  attr {
    key: "_class"
    value {
      list {
        s: "loc:@MobilenetV2/Conv/BatchNorm/moving_mean"
      }
    }
  }
  attr {
    key: "use_locking"
    value {
      b: true
    }
  }
  attr {
    key: "validate_shape"
    value {
      b: true
    }
  }
}
node {
  name: "MobilenetV2/Conv/BatchNorm/moving_mean/read"
  op: "Identity"
  input: "MobilenetV2/Conv/BatchNorm/moving_mean"
  attr {
    key: "T"
    value {
      type: DT_FLOAT
    }
  }
  attr {
    key: "_class"
    value {
      list {
        s: "loc:@MobilenetV2/Conv/BatchNorm/moving_mean"
      }
    }
  }
}
node {
  name: "MobilenetV2/Conv/BatchNorm/moving_variance/Initializer/ones"
  op: "Const"
  attr {
    key: "_class"
    value {
      list {
        s: "loc:@MobilenetV2/Conv/BatchNorm/moving_variance"
      }
    }
  }
  attr {
    key: "dtype"
    value {
      type: DT_FLOAT
    }
  }
  attr {
    key: "value"
    value {
      tensor {
        dtype: DT_FLOAT
        tensor_shape {
          dim {
            size: 16
          }
        }
        float_val: 1.0
      }
    }
  }
}
node {
  name: "MobilenetV2/Conv/BatchNorm/moving_variance"
  op: "VariableV2"
  attr {
    key: "_class"
    value {
      list {
        s: "loc:@MobilenetV2/Conv/BatchNorm/moving_variance"
      }
    }
  }
  attr {
    key: "container"
    value {
      s: ""
    }
  }
  attr {
    key: "dtype"
    value {
      type: DT_FLOAT
    }
  }
  attr {
    key: "shape"
    value {
      shape {
        dim {
          size: 16
        }
      }
    }
  }
  attr {
    key: "shared_name"
    value {
      s: ""
    }
  }
}
node {
  name: "MobilenetV2/Conv/BatchNorm/moving_variance/Assign"
  op: "Assign"
  input: "MobilenetV2/Conv/BatchNorm/moving_variance"
  input: "MobilenetV2/Conv/BatchNorm/moving_variance/Initializer/ones"
  attr {
    key: "T"
    value {
      type: DT_FLOAT
    }
  }
  attr {
    key: "_class"
    value {
      list {
        s: "loc:@MobilenetV2/Conv/BatchNorm/moving_variance"
      }
    }
  }
  attr {
    key: "use_locking"
    value {
      b: true
    }
  }
  attr {
    key: "validate_shape"
    value {
      b: true
    }
  }
}
node {
  name: "MobilenetV2/Conv/BatchNorm/moving_variance/read"
  op: "Identity"
  input: "MobilenetV2/Conv/BatchNorm/moving_variance"
  attr {
    key: "T"
    value {
      type: DT_FLOAT
    }
  }
  attr {
    key: "_class"
    value {
      list {
        s: "loc:@MobilenetV2/Conv/BatchNorm/moving_variance"
      }
    }
  }
}
node {
  name: "MobilenetV2/Conv/BatchNorm/FusedBatchNormV3"
  op: "FusedBatchNormV3"
  input: "MobilenetV2/Conv/Conv2D"
  input: "MobilenetV2/Conv/BatchNorm/gamma/read"
  input: "MobilenetV2/Conv/BatchNorm/beta/read"
  input: "MobilenetV2/Conv/BatchNorm/moving_mean/read"
  input: "MobilenetV2/Conv/BatchNorm/moving_variance/read"
  attr {
    key: "T"
    value {
      type: DT_FLOAT
    }
  }
  attr {
    key: "U"
    value {
      type: DT_FLOAT
    }
  }
  attr {
    key: "data_format"
    value {
      s: "NHWC"
    }
  }
  attr {
    key: "epsilon"
    value {
      f: 0.0010000000474974513
    }
  }
  attr {
    key: "is_training"
    value {
      b: false
    }
  }
}
node {
  name: "MobilenetV2/Conv/BatchNorm/Const"
  op: "Const"
  attr {
    key: "dtype"
    value {
      type: DT_FLOAT
    }
  }
  attr {
    key: "value"
    value {
      tensor {
        dtype: DT_FLOAT
        tensor_shape {
        }
        float_val: 0.996999979019165
      }
    }
  }
}
node {
  name: "MobilenetV2/Conv/Relu6"
  op: "Relu6"
  input: "MobilenetV2/Conv/BatchNorm/FusedBatchNormV3"
  attr {
    key: "T"
    value {
      type: DT_FLOAT
    }
  }
}
node {
  name: "MobilenetV2/expanded_conv/input"
  op: "Identity"
  input: "MobilenetV2/Conv/Relu6"
  attr {
    key: "T"
    value {
      type: DT_FLOAT
    }
  }
}
node {
  name: "MobilenetV2/expanded_conv/depthwise/depthwise_weights/Initializer/truncated_normal/shape"
  op: "Const"
  attr {
    key: "_class"
    value {
      list {
        s: "loc:@MobilenetV2/expanded_conv/depthwise/depthwise_weights"
      }
    }
  }
  attr {
    key: "dtype"
    value {
      type: DT_INT32
    }
  }
  attr {
    key: "value"
    value {
      tensor {
        dtype: DT_INT32
        tensor_shape {
          dim {
            size: 4
          }
        }
        tensor_content: "\003\000\000\000\003\000\000\000\020\000\000\000\001\000\000\000"
      }
    }
  }
}
node {
  name: "MobilenetV2/expanded_conv/depthwise/depthwise_weights/Initializer/truncated_normal/mean"
  op: "Const"
  attr {
    key: "_class"
    value {
      list {
        s: "loc:@MobilenetV2/expanded_conv/depthwise/depthwise_weights"
      }
    }
  }
  attr {
    key: "dtype"
    value {
      type: DT_FLOAT
    }
  }
  attr {
    key: "value"
    value {
      tensor {
        dtype: DT_FLOAT
        tensor_shape {
        }
        float_val: 0.0
      }
    }
  }
}
node {
  name: "MobilenetV2/expanded_conv/depthwise/depthwise_weights/Initializer/truncated_normal/stddev"
  op: "Const"
  attr {
    key: "_class"
    value {
      list {
        s: "loc:@MobilenetV2/expanded_conv/depthwise/depthwise_weights"
      }
    }
  }
  attr {
    key: "dtype"
    value {
      type: DT_FLOAT
    }
  }
  attr {
    key: "value"
    value {
      tensor {
        dtype: DT_FLOAT
        tensor_shape {
        }
        float_val: 0.09000000357627869
      }
    }
  }
}
node {
  name: "MobilenetV2/expanded_conv/depthwise/depthwise_weights/Initializer/truncated_normal/TruncatedNormal"
  op: "TruncatedNormal"
  input: "MobilenetV2/expanded_conv/depthwise/depthwise_weights/Initializer/truncated_normal/shape"
  attr {
    key: "T"
    value {
      type: DT_INT32
    }
  }
  attr {
    key: "_class"
    value {
      list {
        s: "loc:@MobilenetV2/expanded_conv/depthwise/depthwise_weights"
      }
    }
  }
  attr {
    key: "dtype"
    value {
      type: DT_FLOAT
    }
  }
  attr {
    key: "seed"
    value {
      i: 0
    }
  }
  attr {
    key: "seed2"
    value {
      i: 0
    }
  }
}
node {
  name: "MobilenetV2/expanded_conv/depthwise/depthwise_weights/Initializer/truncated_normal/mul"
  op: "Mul"
  input: "MobilenetV2/expanded_conv/depthwise/depthwise_weights/Initializer/truncated_normal/TruncatedNormal"
  input: "MobilenetV2/expanded_conv/depthwise/depthwise_weights/Initializer/truncated_normal/stddev"
  attr {
    key: "T"
    value {
      type: DT_FLOAT
    }
  }
  attr {
    key: "_class"
    value {
      list {
        s: "loc:@MobilenetV2/expanded_conv/depthwise/depthwise_weights"
      }
    }
  }
}
node {
  name: "MobilenetV2/expanded_conv/depthwise/depthwise_weights/Initializer/truncated_normal"
  op: "Add"
  input: "MobilenetV2/expanded_conv/depthwise/depthwise_weights/Initializer/truncated_normal/mul"
  input: "MobilenetV2/expanded_conv/depthwise/depthwise_weights/Initializer/truncated_normal/mean"
  attr {
    key: "T"
    value {
      type: DT_FLOAT
    }
  }
  attr {
    key: "_class"
    value {
      list {
        s: "loc:@MobilenetV2/expanded_conv/depthwise/depthwise_weights"
      }
    }
  }
}
node {
  name: "MobilenetV2/expanded_conv/depthwise/depthwise_weights"
  op: "VariableV2"
  attr {
    key: "_class"
    value {
      list {
        s: "loc:@MobilenetV2/expanded_conv/depthwise/depthwise_weights"
      }
    }
  }
  attr {
    key: "container"
    value {
      s: ""
    }
  }
  attr {
    key: "dtype"
    value {
      type: DT_FLOAT
    }
  }
  attr {
    key: "shape"
    value {
      shape {
        dim {
          size: 3
        }
        dim {
          size: 3
        }
        dim {
          size: 16
        }
        dim {
          size: 1
        }
      }
    }
  }
  attr {
    key: "shared_name"
    value {
      s: ""
    }
  }
}
node {
  name: "MobilenetV2/expanded_conv/depthwise/depthwise_weights/Assign"
  op: "Assign"
  input: "MobilenetV2/expanded_conv/depthwise/depthwise_weights"
  input: "MobilenetV2/expanded_conv/depthwise/depthwise_weights/Initializer/truncated_normal"
  attr {
    key: "T"
    value {
      type: DT_FLOAT
    }
  }
  attr {
    key: "_class"
    value {
      list {
        s: "loc:@MobilenetV2/expanded_conv/depthwise/depthwise_weights"
      }
    }
  }
  attr {
    key: "use_locking"
    value {
      b: true
    }
  }
  attr {
    key: "validate_shape"
    value {
      b: true
    }
  }
}
node {
  name: "MobilenetV2/expanded_conv/depthwise/depthwise_weights/read"
  op: "Identity"
  input: "MobilenetV2/expanded_conv/depthwise/depthwise_weights"
  attr {
    key: "T"
    value {
      type: DT_FLOAT
    }
  }
  attr {
    key: "_class"
    value {
      list {
        s: "loc:@MobilenetV2/expanded_conv/depthwise/depthwise_weights"
      }
    }
  }
}
node {
  name: "MobilenetV2/expanded_conv/depthwise/depthwise/Shape"
  op: "Const"
  attr {
    key: "dtype"
    value {
      type: DT_INT32
    }
  }
  attr {
    key: "value"
    value {
      tensor {
        dtype: DT_INT32
        tensor_shape {
          dim {
            size: 4
          }
        }
        tensor_content: "\003\000\000\000\003\000\000\000\020\000\000\000\001\000\000\000"
      }
    }
  }
}
node {
  name: "MobilenetV2/expanded_conv/depthwise/depthwise/dilation_rate"
  op: "Const"
  attr {
    key: "dtype"
    value {
      type: DT_INT32
    }
  }
  attr {
    key: "value"
    value {
      tensor {
        dtype: DT_INT32
        tensor_shape {
          dim {
            size: 2
          }
        }
        tensor_content: "\001\000\000\000\001\000\000\000"
      }
    }
  }
}
node {
  name: "MobilenetV2/expanded_conv/depthwise/depthwise"
  op: "DepthwiseConv2dNative"
  input: "MobilenetV2/expanded_conv/input"
  input: "MobilenetV2/expanded_conv/depthwise/depthwise_weights/read"
  attr {
    key: "T"
    value {
      type: DT_FLOAT
    }
  }
  attr {
    key: "data_format"
    value {
      s: "NHWC"
    }
  }
  attr {
    key: "dilations"
    value {
      list {
        i: 1
        i: 1
        i: 1
        i: 1
      }
    }
  }
  attr {
    key: "padding"
    value {
      s: "SAME"
    }
  }
  attr {
    key: "strides"
    value {
      list {
        i: 1
        i: 1
        i: 1
        i: 1
      }
    }
  }
}
node {
  name: "MobilenetV2/expanded_conv/depthwise/BatchNorm/gamma/Initializer/ones"
  op: "Const"
  attr {
    key: "_class"
    value {
      list {
        s: "loc:@MobilenetV2/expanded_conv/depthwise/BatchNorm/gamma"
      }
    }
  }
  attr {
    key: "dtype"
    value {
      type: DT_FLOAT
    }
  }
  attr {
    key: "value"
    value {
      tensor {
        dtype: DT_FLOAT
        tensor_shape {
          dim {
            size: 16
          }
        }
        float_val: 1.0
      }
    }
  }
}
node {
  name: "MobilenetV2/expanded_conv/depthwise/BatchNorm/gamma"
  op: "VariableV2"
  attr {
    key: "_class"
    value {
      list {
        s: "loc:@MobilenetV2/expanded_conv/depthwise/BatchNorm/gamma"
      }
    }
  }
  attr {
    key: "container"
    value {
      s: ""
    }
  }
  attr {
    key: "dtype"
    value {
      type: DT_FLOAT
    }
  }
  attr {
    key: "shape"
    value {
      shape {
        dim {
          size: 16
        }
      }
    }
  }
  attr {
    key: "shared_name"
    value {
      s: ""
    }
  }
}
node {
  name: "MobilenetV2/expanded_conv/depthwise/BatchNorm/gamma/Assign"
  op: "Assign"
  input: "MobilenetV2/expanded_conv/depthwise/BatchNorm/gamma"
  input: "MobilenetV2/expanded_conv/depthwise/BatchNorm/gamma/Initializer/ones"
  attr {
    key: "T"
    value {
      type: DT_FLOAT
    }
  }
  attr {
    key: "_class"
    value {
      list {
        s: "loc:@MobilenetV2/expanded_conv/depthwise/BatchNorm/gamma"
      }
    }
  }
  attr {
    key: "use_locking"
    value {
      b: true
    }
  }
  attr {
    key: "validate_shape"
    value {
      b: true
    }
  }
}
node {
  name: "MobilenetV2/expanded_conv/depthwise/BatchNorm/gamma/read"
  op: "Identity"
  input: "MobilenetV2/expanded_conv/depthwise/BatchNorm/gamma"
  attr {
    key: "T"
    value {
      type: DT_FLOAT
    }
  }
  attr {
    key: "_class"
    value {
      list {
        s: "loc:@MobilenetV2/expanded_conv/depthwise/BatchNorm/gamma"
      }
    }
  }
}
node {
  name: "MobilenetV2/expanded_conv/depthwise/BatchNorm/beta/Initializer/zeros"
  op: "Const"
  attr {
    key: "_class"
    value {
      list {
        s: "loc:@MobilenetV2/expanded_conv/depthwise/BatchNorm/beta"
      }
    }
  }
  attr {
    key: "dtype"
    value {
      type: DT_FLOAT
    }
  }
  attr {
    key: "value"
    value {
      tensor {
        dtype: DT_FLOAT
        tensor_shape {
          dim {
            size: 16
          }
        }
        float_val: 0.0
      }
    }
  }
}
node {
  name: "MobilenetV2/expanded_conv/depthwise/BatchNorm/beta"
  op: "VariableV2"
  attr {
    key: "_class"
    value {
      list {
        s: "loc:@MobilenetV2/expanded_conv/depthwise/BatchNorm/beta"
      }
    }
  }
  attr {
    key: "container"
    value {
      s: ""
    }
  }
  attr {
    key: "dtype"
    value {
      type: DT_FLOAT
    }
  }
  attr {
    key: "shape"
    value {
      shape {
        dim {
          size: 16
        }
      }
    }
  }
  attr {
    key: "shared_name"
    value {
      s: ""
    }
  }
}
node {
  name: "MobilenetV2/expanded_conv/depthwise/BatchNorm/beta/Assign"
  op: "Assign"
  input: "MobilenetV2/expanded_conv/depthwise/BatchNorm/beta"
  input: "MobilenetV2/expanded_conv/depthwise/BatchNorm/beta/Initializer/zeros"
  attr {
    key: "T"
    value {
      type: DT_FLOAT
    }
  }
  attr {
    key: "_class"
    value {
      list {
        s: "loc:@MobilenetV2/expanded_conv/depthwise/BatchNorm/beta"
      }
    }
  }
  attr {
    key: "use_locking"
    value {
      b: true
    }
  }
  attr {
    key: "validate_shape"
    value {
      b: true
    }
  }
}
node {
  name: "MobilenetV2/expanded_conv/depthwise/BatchNorm/beta/read"
  op: "Identity"
  input: "MobilenetV2/expanded_conv/depthwise/BatchNorm/beta"
  attr {
    key: "T"
    value {
      type: DT_FLOAT
    }
  }
  attr {
    key: "_class"
    value {
      list {
        s: "loc:@MobilenetV2/expanded_conv/depthwise/BatchNorm/beta"
      }
    }
  }
}
node {
  name: "MobilenetV2/expanded_conv/depthwise/BatchNorm/moving_mean/Initializer/zeros"
  op: "Const"
  attr {
    key: "_class"
    value {
      list {
        s: "loc:@MobilenetV2/expanded_conv/depthwise/BatchNorm/moving_mean"
      }
    }
  }
  attr {
    key: "dtype"
    value {
      type: DT_FLOAT
    }
  }
  attr {
    key: "value"
    value {
      tensor {
        dtype: DT_FLOAT
        tensor_shape {
          dim {
            size: 16
          }
        }
        float_val: 0.0
      }
    }
  }
}
node {
  name: "MobilenetV2/expanded_conv/depthwise/BatchNorm/moving_mean"
  op: "VariableV2"
  attr {
    key: "_class"
    value {
      list {
        s: "loc:@MobilenetV2/expanded_conv/depthwise/BatchNorm/moving_mean"
      }
    }
  }
  attr {
    key: "container"
    value {
      s: ""
    }
  }
  attr {
    key: "dtype"
    value {
      type: DT_FLOAT
    }
  }
  attr {
    key: "shape"
    value {
      shape {
        dim {
          size: 16
        }
      }
    }
  }
  attr {
    key: "shared_name"
    value {
      s: ""
    }
  }
}
node {
  name: "MobilenetV2/expanded_conv/depthwise/BatchNorm/moving_mean/Assign"
  op: "Assign"
  input: "MobilenetV2/expanded_conv/depthwise/BatchNorm/moving_mean"
  input: "MobilenetV2/expanded_conv/depthwise/BatchNorm/moving_mean/Initializer/zeros"
  attr {
    key: "T"
    value {
      type: DT_FLOAT
    }
  }
  attr {
    key: "_class"
    value {
      list {
        s: "loc:@MobilenetV2/expanded_conv/depthwise/BatchNorm/moving_mean"
      }
    }
  }
  attr {
    key: "use_locking"
    value {
      b: true
    }
  }
  attr {
    key: "validate_shape"
    value {
      b: true
    }
  }
}
node {
  name: "MobilenetV2/expanded_conv/depthwise/BatchNorm/moving_mean/read"
  op: "Identity"
  input: "MobilenetV2/expanded_conv/depthwise/BatchNorm/moving_mean"
  attr {
    key: "T"
    value {
      type: DT_FLOAT
    }
  }
  attr {
    key: "_class"
    value {
      list {
        s: "loc:@MobilenetV2/expanded_conv/depthwise/BatchNorm/moving_mean"
      }
    }
  }
}
node {
  name: "MobilenetV2/expanded_conv/depthwise/BatchNorm/moving_variance/Initializer/ones"
  op: "Const"
  attr {
    key: "_class"
    value {
      list {
        s: "loc:@MobilenetV2/expanded_conv/depthwise/BatchNorm/moving_variance"
      }
    }
  }
  attr {
    key: "dtype"
    value {
      type: DT_FLOAT
    }
  }
  attr {
    key: "value"
    value {
      tensor {
        dtype: DT_FLOAT
        tensor_shape {
          dim {
            size: 16
          }
        }
        float_val: 1.0
      }
    }
  }
}
node {
  name: "MobilenetV2/expanded_conv/depthwise/BatchNorm/moving_variance"
  op: "VariableV2"
  attr {
    key: "_class"
    value {
      list {
        s: "loc:@MobilenetV2/expanded_conv/depthwise/BatchNorm/moving_variance"
      }
    }
  }
  attr {
    key: "container"
    value {
      s: ""
    }
  }
  attr {
    key: "dtype"
    value {
      type: DT_FLOAT
    }
  }
  attr {
    key: "shape"
    value {
      shape {
        dim {
          size: 16
        }
      }
    }
  }
  attr {
    key: "shared_name"
    value {
      s: ""
    }
  }
}
node {
  name: "MobilenetV2/expanded_conv/depthwise/BatchNorm/moving_variance/Assign"
  op: "Assign"
  input: "MobilenetV2/expanded_conv/depthwise/BatchNorm/moving_variance"
  input: "MobilenetV2/expanded_conv/depthwise/BatchNorm/moving_variance/Initializer/ones"
  attr {
    key: "T"
    value {
      type: DT_FLOAT
    }
  }
  attr {
    key: "_class"
    value {
      list {
        s: "loc:@MobilenetV2/expanded_conv/depthwise/BatchNorm/moving_variance"
      }
    }
  }
  attr {
    key: "use_locking"
    value {
      b: true
    }
  }
  attr {
    key: "validate_shape"
    value {
      b: true
    }
  }
}
node {
  name: "MobilenetV2/expanded_conv/depthwise/BatchNorm/moving_variance/read"
  op: "Identity"
  input: "MobilenetV2/expanded_conv/depthwise/BatchNorm/moving_variance"
  attr {
    key: "T"
    value {
      type: DT_FLOAT
    }
  }
  attr {
    key: "_class"
    value {
      list {
        s: "loc:@MobilenetV2/expanded_conv/depthwise/BatchNorm/moving_variance"
      }
    }
  }
}
node {
  name: "MobilenetV2/expanded_conv/depthwise/BatchNorm/FusedBatchNormV3"
  op: "FusedBatchNormV3"
  input: "MobilenetV2/expanded_conv/depthwise/depthwise"
  input: "MobilenetV2/expanded_conv/depthwise/BatchNorm/gamma/read"
  input: "MobilenetV2/expanded_conv/depthwise/BatchNorm/beta/read"
  input: "MobilenetV2/expanded_conv/depthwise/BatchNorm/moving_mean/read"
  input: "MobilenetV2/expanded_conv/depthwise/BatchNorm/moving_variance/read"
  attr {
    key: "T"
    value {
      type: DT_FLOAT
    }
  }
  attr {
    key: "U"
    value {
      type: DT_FLOAT
    }
  }
  attr {
    key: "data_format"
    value {
      s: "NHWC"
    }
  }
  attr {
    key: "epsilon"
    value {
      f: 0.0010000000474974513
    }
  }
  attr {
    key: "is_training"
    value {
      b: false
    }
  }
}
node {
  name: "MobilenetV2/expanded_conv/depthwise/BatchNorm/Const"
  op: "Const"
  attr {
    key: "dtype"
    value {
      type: DT_FLOAT
    }
  }
  attr {
    key: "value"
    value {
      tensor {
        dtype: DT_FLOAT
        tensor_shape {
        }
        float_val: 0.996999979019165
      }
    }
  }
}
node {
  name: "MobilenetV2/expanded_conv/depthwise/Relu6"
  op: "Relu6"
  input: "MobilenetV2/expanded_conv/depthwise/BatchNorm/FusedBatchNormV3"
  attr {
    key: "T"
    value {
      type: DT_FLOAT
    }
  }
}
node {
  name: "MobilenetV2/expanded_conv/depthwise_output"
  op: "Identity"
  input: "MobilenetV2/expanded_conv/depthwise/Relu6"
  attr {
    key: "T"
    value {
      type: DT_FLOAT
    }
  }
}
node {
  name: "MobilenetV2/expanded_conv/project/weights/Initializer/truncated_normal/shape"
  op: "Const"
  attr {
    key: "_class"
    value {
      list {
        s: "loc:@MobilenetV2/expanded_conv/project/weights"
      }
    }
  }
  attr {
    key: "dtype"
    value {
      type: DT_INT32
    }
  }
  attr {
    key: "value"
    value {
      tensor {
        dtype: DT_INT32
        tensor_shape {
          dim {
            size: 4
          }
        }
        tensor_content: "\001\000\000\000\001\000\000\000\020\000\000\000\010\000\000\000"
      }
    }
  }
}
node {
  name: "MobilenetV2/expanded_conv/project/weights/Initializer/truncated_normal/mean"
  op: "Const"
  attr {
    key: "_class"
    value {
      list {
        s: "loc:@MobilenetV2/expanded_conv/project/weights"
      }
    }
  }
  attr {
    key: "dtype"
    value {
      type: DT_FLOAT
    }
  }
  attr {
    key: "value"
    value {
      tensor {
        dtype: DT_FLOAT
        tensor_shape {
        }
        float_val: 0.0
      }
    }
  }
}
node {
  name: "MobilenetV2/expanded_conv/project/weights/Initializer/truncated_normal/stddev"
  op: "Const"
  attr {
    key: "_class"
    value {
      list {
        s: "loc:@MobilenetV2/expanded_conv/project/weights"
      }
    }
  }
  attr {
    key: "dtype"
    value {
      type: DT_FLOAT
    }
  }
  attr {
    key: "value"
    value {
      tensor {
        dtype: DT_FLOAT
        tensor_shape {
        }
        float_val: 0.09000000357627869
      }
    }
  }
}
node {
  name: "MobilenetV2/expanded_conv/project/weights/Initializer/truncated_normal/TruncatedNormal"
  op: "TruncatedNormal"
  input: "MobilenetV2/expanded_conv/project/weights/Initializer/truncated_normal/shape"
  attr {
    key: "T"
    value {
      type: DT_INT32
    }
  }
  attr {
    key: "_class"
    value {
      list {
        s: "loc:@MobilenetV2/expanded_conv/project/weights"
      }
    }
  }
  attr {
    key: "dtype"
    value {
      type: DT_FLOAT
    }
  }
  attr {
    key: "seed"
    value {
      i: 0
    }
  }
  attr {
    key: "seed2"
    value {
      i: 0
    }
  }
}
node {
  name: "MobilenetV2/expanded_conv/project/weights/Initializer/truncated_normal/mul"
  op: "Mul"
  input: "MobilenetV2/expanded_conv/project/weights/Initializer/truncated_normal/TruncatedNormal"
  input: "MobilenetV2/expanded_conv/project/weights/Initializer/truncated_normal/stddev"
  attr {
    key: "T"
    value {
      type: DT_FLOAT
    }
  }
  attr {
    key: "_class"
    value {
      list {
        s: "loc:@MobilenetV2/expanded_conv/project/weights"
      }
    }
  }
}
node {
  name: "MobilenetV2/expanded_conv/project/weights/Initializer/truncated_normal"
  op: "Add"
  input: "MobilenetV2/expanded_conv/project/weights/Initializer/truncated_normal/mul"
  input: "MobilenetV2/expanded_conv/project/weights/Initializer/truncated_normal/mean"
  attr {
    key: "T"
    value {
      type: DT_FLOAT
    }
  }
  attr {
    key: "_class"
    value {
      list {
        s: "loc:@MobilenetV2/expanded_conv/project/weights"
      }
    }
  }
}
node {
  name: "MobilenetV2/expanded_conv/project/weights"
  op: "VariableV2"
  attr {
    key: "_class"
    value {
      list {
        s: "loc:@MobilenetV2/expanded_conv/project/weights"
      }
    }
  }
  attr {
    key: "container"
    value {
      s: ""
    }
  }
  attr {
    key: "dtype"
    value {
      type: DT_FLOAT
    }
  }
  attr {
    key: "shape"
    value {
      shape {
        dim {
          size: 1
        }
        dim {
          size: 1
        }
        dim {
          size: 16
        }
        dim {
          size: 8
        }
      }
    }
  }
  attr {
    key: "shared_name"
    value {
      s: ""
    }
  }
}
node {
  name: "MobilenetV2/expanded_conv/project/weights/Assign"
  op: "Assign"
  input: "MobilenetV2/expanded_conv/project/weights"
  input: "MobilenetV2/expanded_conv/project/weights/Initializer/truncated_normal"
  attr {
    key: "T"
    value {
      type: DT_FLOAT
    }
  }
  attr {
    key: "_class"
    value {
      list {
        s: "loc:@MobilenetV2/expanded_conv/project/weights"
      }
    }
  }
  attr {
    key: "use_locking"
    value {
      b: true
    }
  }
  attr {
    key: "validate_shape"
    value {
      b: true
    }
  }
}
node {
  name: "MobilenetV2/expanded_conv/project/weights/read"
  op: "Identity"
  input: "MobilenetV2/expanded_conv/project/weights"
  attr {
    key: "T"
    value {
      type: DT_FLOAT
    }
  }
  attr {
    key: "_class"
    value {
      list {
        s: "loc:@MobilenetV2/expanded_conv/project/weights"
      }
    }
  }
}
node {
  name: "MobilenetV2/expanded_conv/project/kernel/Regularizer/l2_regularizer/scale"
  op: "Const"
  attr {
    key: "dtype"
    value {
      type: DT_FLOAT
    }
  }
  attr {
    key: "value"
    value {
      tensor {
        dtype: DT_FLOAT
        tensor_shape {
        }
        float_val: 3.9999998989515007e-05
      }
    }
  }
}
node {
  name: "MobilenetV2/expanded_conv/project/kernel/Regularizer/l2_regularizer/L2Loss"
  op: "L2Loss"
  input: "MobilenetV2/expanded_conv/project/weights/read"
  attr {
    key: "T"
    value {
      type: DT_FLOAT
    }
  }
}
node {
  name: "MobilenetV2/expanded_conv/project/kernel/Regularizer/l2_regularizer"
  op: "Mul"
  input: "MobilenetV2/expanded_conv/project/kernel/Regularizer/l2_regularizer/scale"
  input: "MobilenetV2/expanded_conv/project/kernel/Regularizer/l2_regularizer/L2Loss"
  attr {
    key: "T"
    value {
      type: DT_FLOAT
    }
  }
}
node {
  name: "MobilenetV2/expanded_conv/project/dilation_rate"
  op: "Const"
  attr {
    key: "dtype"
    value {
      type: DT_INT32
    }
  }
  attr {
    key: "value"
    value {
      tensor {
        dtype: DT_INT32
        tensor_shape {
          dim {
            size: 2
          }
        }
        tensor_content: "\001\000\000\000\001\000\000\000"
      }
    }
  }
}
node {
  name: "MobilenetV2/expanded_conv/project/Conv2D"
  op: "Conv2D"
  input: "MobilenetV2/expanded_conv/depthwise_output"
  input: "MobilenetV2/expanded_conv/project/weights/read"
  attr {
    key: "T"
    value {
      type: DT_FLOAT
    }
  }
  attr {
    key: "data_format"
    value {
      s: "NHWC"
    }
  }
  attr {
    key: "dilations"
    value {
      list {
        i: 1
        i: 1
        i: 1
        i: 1
      }
    }
  }
  attr {
    key: "explicit_paddings"
    value {
      list {
      }
    }
  }
  attr {
    key: "padding"
    value {
      s: "SAME"
    }
  }
  attr {
    key: "strides"
    value {
      list {
        i: 1
        i: 1
        i: 1
        i: 1
      }
    }
  }
  attr {
    key: "use_cudnn_on_gpu"
    value {
      b: true
    }
  }
}
node {
  name: "MobilenetV2/expanded_conv/project/BatchNorm/gamma/Initializer/ones"
  op: "Const"
  attr {
    key: "_class"
    value {
      list {
        s: "loc:@MobilenetV2/expanded_conv/project/BatchNorm/gamma"
      }
    }
  }
  attr {
    key: "dtype"
    value {
      type: DT_FLOAT
    }
  }
  attr {
    key: "value"
    value {
      tensor {
        dtype: DT_FLOAT
        tensor_shape {
          dim {
            size: 8
          }
        }
        float_val: 1.0
      }
    }
  }
}
node {
  name: "MobilenetV2/expanded_conv/project/BatchNorm/gamma"
  op: "VariableV2"
  attr {
    key: "_class"
    value {
      list {
        s: "loc:@MobilenetV2/expanded_conv/project/BatchNorm/gamma"
      }
    }
  }
  attr {
    key: "container"
    value {
      s: ""
    }
  }
  attr {
    key: "dtype"
    value {
      type: DT_FLOAT
    }
  }
  attr {
    key: "shape"
    value {
      shape {
        dim {
          size: 8
        }
      }
    }
  }
  attr {
    key: "shared_name"
    value {
      s: ""
    }
  }
}
node {
  name: "MobilenetV2/expanded_conv/project/BatchNorm/gamma/Assign"
  op: "Assign"
  input: "MobilenetV2/expanded_conv/project/BatchNorm/gamma"
  input: "MobilenetV2/expanded_conv/project/BatchNorm/gamma/Initializer/ones"
  attr {
    key: "T"
    value {
      type: DT_FLOAT
    }
  }
  attr {
    key: "_class"
    value {
      list {
        s: "loc:@MobilenetV2/expanded_conv/project/BatchNorm/gamma"
      }
    }
  }
  attr {
    key: "use_locking"
    value {
      b: true
    }
  }
  attr {
    key: "validate_shape"
    value {
      b: true
    }
  }
}
node {
  name: "MobilenetV2/expanded_conv/project/BatchNorm/gamma/read"
  op: "Identity"
  input: "MobilenetV2/expanded_conv/project/BatchNorm/gamma"
  attr {
    key: "T"
    value {
      type: DT_FLOAT
    }
  }
  attr {
    key: "_class"
    value {
      list {
        s: "loc:@MobilenetV2/expanded_conv/project/BatchNorm/gamma"
      }
    }
  }
}
node {
  name: "MobilenetV2/expanded_conv/project/BatchNorm/beta/Initializer/zeros"
  op: "Const"
  attr {
    key: "_class"
    value {
      list {
        s: "loc:@MobilenetV2/expanded_conv/project/BatchNorm/beta"
      }
    }
  }
  attr {
    key: "dtype"
    value {
      type: DT_FLOAT
    }
  }
  attr {
    key: "value"
    value {
      tensor {
        dtype: DT_FLOAT
        tensor_shape {
          dim {
            size: 8
          }
        }
        float_val: 0.0
      }
    }
  }
}
node {
  name: "MobilenetV2/expanded_conv/project/BatchNorm/beta"
  op: "VariableV2"
  attr {
    key: "_class"
    value {
      list {
        s: "loc:@MobilenetV2/expanded_conv/project/BatchNorm/beta"
      }
    }
  }
  attr {
    key: "container"
    value {
      s: ""
    }
  }
  attr {
    key: "dtype"
    value {
      type: DT_FLOAT
    }
  }
  attr {
    key: "shape"
    value {
      shape {
        dim {
          size: 8
        }
      }
    }
  }
  attr {
    key: "shared_name"
    value {
      s: ""
    }
  }
}
node {
  name: "MobilenetV2/expanded_conv/project/BatchNorm/beta/Assign"
  op: "Assign"
  input: "MobilenetV2/expanded_conv/project/BatchNorm/beta"
  input: "MobilenetV2/expanded_conv/project/BatchNorm/beta/Initializer/zeros"
  attr {
    key: "T"
    value {
      type: DT_FLOAT
    }
  }
  attr {
    key: "_class"
    value {
      list {
        s: "loc:@MobilenetV2/expanded_conv/project/BatchNorm/beta"
      }
    }
  }
  attr {
    key: "use_locking"
    value {
      b: true
    }
  }
  attr {
    key: "validate_shape"
    value {
      b: true
    }
  }
}
node {
  name: "MobilenetV2/expanded_conv/project/BatchNorm/beta/read"
  op: "Identity"
  input: "MobilenetV2/expanded_conv/project/BatchNorm/beta"
  attr {
    key: "T"
    value {
      type: DT_FLOAT
    }
  }
  attr {
    key: "_class"
    value {
      list {
        s: "loc:@MobilenetV2/expanded_conv/project/BatchNorm/beta"
      }
    }
  }
}
node {
  name: "MobilenetV2/expanded_conv/project/BatchNorm/moving_mean/Initializer/zeros"
  op: "Const"
  attr {
    key: "_class"
    value {
      list {
        s: "loc:@MobilenetV2/expanded_conv/project/BatchNorm/moving_mean"
      }
    }
  }
  attr {
    key: "dtype"
    value {
      type: DT_FLOAT
    }
  }
  attr {
    key: "value"
    value {
      tensor {
        dtype: DT_FLOAT
        tensor_shape {
          dim {
            size: 8
          }
        }
        float_val: 0.0
      }
    }
  }
}
node {
  name: "MobilenetV2/expanded_conv/project/BatchNorm/moving_mean"
  op: "VariableV2"
  attr {
    key: "_class"
    value {
      list {
        s: "loc:@MobilenetV2/expanded_conv/project/BatchNorm/moving_mean"
      }
    }
  }
  attr {
    key: "container"
    value {
      s: ""
    }
  }
  attr {
    key: "dtype"
    value {
      type: DT_FLOAT
    }
  }
  attr {
    key: "shape"
    value {
      shape {
        dim {
          size: 8
        }
      }
    }
  }
  attr {
    key: "shared_name"
    value {
      s: ""
    }
  }
}
node {
  name: "MobilenetV2/expanded_conv/project/BatchNorm/moving_mean/Assign"
  op: "Assign"
  input: "MobilenetV2/expanded_conv/project/BatchNorm/moving_mean"
  input: "MobilenetV2/expanded_conv/project/BatchNorm/moving_mean/Initializer/zeros"
  attr {
    key: "T"
    value {
      type: DT_FLOAT
    }
  }
  attr {
    key: "_class"
    value {
      list {
        s: "loc:@MobilenetV2/expanded_conv/project/BatchNorm/moving_mean"
      }
    }
  }
  attr {
    key: "use_locking"
    value {
      b: true
    }
  }
  attr {
    key: "validate_shape"
    value {
      b: true
    }
  }
}
node {
  name: "MobilenetV2/expanded_conv/project/BatchNorm/moving_mean/read"
  op: "Identity"
  input: "MobilenetV2/expanded_conv/project/BatchNorm/moving_mean"
  attr {
    key: "T"
    value {
      type: DT_FLOAT
    }
  }
  attr {
    key: "_class"
    value {
      list {
        s: "loc:@MobilenetV2/expanded_conv/project/BatchNorm/moving_mean"
      }
    }
  }
}
node {
  name: "MobilenetV2/expanded_conv/project/BatchNorm/moving_variance/Initializer/ones"
  op: "Const"
  attr {
    key: "_class"
    value {
      list {
        s: "loc:@MobilenetV2/expanded_conv/project/BatchNorm/moving_variance"
      }
    }
  }
  attr {
    key: "dtype"
    value {
      type: DT_FLOAT
    }
  }
  attr {
    key: "value"
    value {
      tensor {
        dtype: DT_FLOAT
        tensor_shape {
          dim {
            size: 8
          }
        }
        float_val: 1.0
      }
    }
  }
}
node {
  name: "MobilenetV2/expanded_conv/project/BatchNorm/moving_variance"
  op: "VariableV2"
  attr {
    key: "_class"
    value {
      list {
        s: "loc:@MobilenetV2/expanded_conv/project/BatchNorm/moving_variance"
      }
    }
  }
  attr {
    key: "container"
    value {
      s: ""
    }
  }
  attr {
    key: "dtype"
    value {
      type: DT_FLOAT
    }
  }
  attr {
    key: "shape"
    value {
      shape {
        dim {
          size: 8
        }
      }
    }
  }
  attr {
    key: "shared_name"
    value {
      s: ""
    }
  }
}
node {
  name: "MobilenetV2/expanded_conv/project/BatchNorm/moving_variance/Assign"
  op: "Assign"
  input: "MobilenetV2/expanded_conv/project/BatchNorm/moving_variance"
  input: "MobilenetV2/expanded_conv/project/BatchNorm/moving_variance/Initializer/ones"
  attr {
    key: "T"
    value {
      type: DT_FLOAT
    }
  }
  attr {
    key: "_class"
    value {
      list {
        s: "loc:@MobilenetV2/expanded_conv/project/BatchNorm/moving_variance"
      }
    }
  }
  attr {
    key: "use_locking"
    value {
      b: true
    }
  }
  attr {
    key: "validate_shape"
    value {
      b: true
    }
  }
}
node {
  name: "MobilenetV2/expanded_conv/project/BatchNorm/moving_variance/read"
  op: "Identity"
  input: "MobilenetV2/expanded_conv/project/BatchNorm/moving_variance"
  attr {
    key: "T"
    value {
      type: DT_FLOAT
    }
  }
  attr {
    key: "_class"
    value {
      list {
        s: "loc:@MobilenetV2/expanded_conv/project/BatchNorm/moving_variance"
      }
    }
  }
}
node {
  name: "MobilenetV2/expanded_conv/project/BatchNorm/FusedBatchNormV3"
  op: "FusedBatchNormV3"
  input: "MobilenetV2/expanded_conv/project/Conv2D"
  input: "MobilenetV2/expanded_conv/project/BatchNorm/gamma/read"
  input: "MobilenetV2/expanded_conv/project/BatchNorm/beta/read"
  input: "MobilenetV2/expanded_conv/project/BatchNorm/moving_mean/read"
  input: "MobilenetV2/expanded_conv/project/BatchNorm/moving_variance/read"
  attr {
    key: "T"
    value {
      type: DT_FLOAT
    }
  }
  attr {
    key: "U"
    value {
      type: DT_FLOAT
    }
  }
  attr {
    key: "data_format"
    value {
      s: "NHWC"
    }
  }
  attr {
    key: "epsilon"
    value {
      f: 0.0010000000474974513
    }
  }
  attr {
    key: "is_training"
    value {
      b: false
    }
  }
}
node {
  name: "MobilenetV2/expanded_conv/project/BatchNorm/Const"
  op: "Const"
  attr {
    key: "dtype"
    value {
      type: DT_FLOAT
    }
  }
  attr {
    key: "value"
    value {
      tensor {
        dtype: DT_FLOAT
        tensor_shape {
        }
        float_val: 0.996999979019165
      }
    }
  }
}
node {
  name: "MobilenetV2/expanded_conv/project/Identity"
  op: "Identity"
  input: "MobilenetV2/expanded_conv/project/BatchNorm/FusedBatchNormV3"
  attr {
    key: "T"
    value {
      type: DT_FLOAT
    }
  }
}
node {
  name: "MobilenetV2/expanded_conv/output"
  op: "Identity"
  input: "MobilenetV2/expanded_conv/project/Identity"
  attr {
    key: "T"
    value {
      type: DT_FLOAT
    }
  }
}
node {
  name: "MobilenetV2/expanded_conv_1/input"
  op: "Identity"
  input: "MobilenetV2/expanded_conv/output"
  attr {
    key: "T"
    value {
      type: DT_FLOAT
    }
  }
}
node {
  name: "MobilenetV2/expanded_conv_1/expand/weights/Initializer/truncated_normal/shape"
  op: "Const"
  attr {
    key: "_class"
    value {
      list {
        s: "loc:@MobilenetV2/expanded_conv_1/expand/weights"
      }
    }
  }
  attr {
    key: "dtype"
    value {
      type: DT_INT32
    }
  }
  attr {
    key: "value"
    value {
      tensor {
        dtype: DT_INT32
        tensor_shape {
          dim {
            size: 4
          }
        }
        tensor_content: "\001\000\000\000\001\000\000\000\010\000\000\0000\000\000\000"
      }
    }
  }
}
node {
  name: "MobilenetV2/expanded_conv_1/expand/weights/Initializer/truncated_normal/mean"
  op: "Const"
  attr {
    key: "_class"
    value {
      list {
        s: "loc:@MobilenetV2/expanded_conv_1/expand/weights"
      }
    }
  }
  attr {
    key: "dtype"
    value {
      type: DT_FLOAT
    }
  }
  attr {
    key: "value"
    value {
      tensor {
        dtype: DT_FLOAT
        tensor_shape {
        }
        float_val: 0.0
      }
    }
  }
}
node {
  name: "MobilenetV2/expanded_conv_1/expand/weights/Initializer/truncated_normal/stddev"
  op: "Const"
  attr {
    key: "_class"
    value {
      list {
        s: "loc:@MobilenetV2/expanded_conv_1/expand/weights"
      }
    }
  }
  attr {
    key: "dtype"
    value {
      type: DT_FLOAT
    }
  }
  attr {
    key: "value"
    value {
      tensor {
        dtype: DT_FLOAT
        tensor_shape {
        }
        float_val: 0.09000000357627869
      }
    }
  }
}
node {
  name: "MobilenetV2/expanded_conv_1/expand/weights/Initializer/truncated_normal/TruncatedNormal"
  op: "TruncatedNormal"
  input: "MobilenetV2/expanded_conv_1/expand/weights/Initializer/truncated_normal/shape"
  attr {
    key: "T"
    value {
      type: DT_INT32
    }
  }
  attr {
    key: "_class"
    value {
      list {
        s: "loc:@MobilenetV2/expanded_conv_1/expand/weights"
      }
    }
  }
  attr {
    key: "dtype"
    value {
      type: DT_FLOAT
    }
  }
  attr {
    key: "seed"
    value {
      i: 0
    }
  }
  attr {
    key: "seed2"
    value {
      i: 0
    }
  }
}
node {
  name: "MobilenetV2/expanded_conv_1/expand/weights/Initializer/truncated_normal/mul"
  op: "Mul"
  input: "MobilenetV2/expanded_conv_1/expand/weights/Initializer/truncated_normal/TruncatedNormal"
  input: "MobilenetV2/expanded_conv_1/expand/weights/Initializer/truncated_normal/stddev"
  attr {
    key: "T"
    value {
      type: DT_FLOAT
    }
  }
  attr {
    key: "_class"
    value {
      list {
        s: "loc:@MobilenetV2/expanded_conv_1/expand/weights"
      }
    }
  }
}
node {
  name: "MobilenetV2/expanded_conv_1/expand/weights/Initializer/truncated_normal"
  op: "Add"
  input: "MobilenetV2/expanded_conv_1/expand/weights/Initializer/truncated_normal/mul"
  input: "MobilenetV2/expanded_conv_1/expand/weights/Initializer/truncated_normal/mean"
  attr {
    key: "T"
    value {
      type: DT_FLOAT
    }
  }
  attr {
    key: "_class"
    value {
      list {
        s: "loc:@MobilenetV2/expanded_conv_1/expand/weights"
      }
    }
  }
}
node {
  name: "MobilenetV2/expanded_conv_1/expand/weights"
  op: "VariableV2"
  attr {
    key: "_class"
    value {
      list {
        s: "loc:@MobilenetV2/expanded_conv_1/expand/weights"
      }
    }
  }
  attr {
    key: "container"
    value {
      s: ""
    }
  }
  attr {
    key: "dtype"
    value {
      type: DT_FLOAT
    }
  }
  attr {
    key: "shape"
    value {
      shape {
        dim {
          size: 1
        }
        dim {
          size: 1
        }
        dim {
          size: 8
        }
        dim {
          size: 48
        }
      }
    }
  }
  attr {
    key: "shared_name"
    value {
      s: ""
    }
  }
}
node {
  name: "MobilenetV2/expanded_conv_1/expand/weights/Assign"
  op: "Assign"
  input: "MobilenetV2/expanded_conv_1/expand/weights"
  input: "MobilenetV2/expanded_conv_1/expand/weights/Initializer/truncated_normal"
  attr {
    key: "T"
    value {
      type: DT_FLOAT
    }
  }
  attr {
    key: "_class"
    value {
      list {
        s: "loc:@MobilenetV2/expanded_conv_1/expand/weights"
      }
    }
  }
  attr {
    key: "use_locking"
    value {
      b: true
    }
  }
  attr {
    key: "validate_shape"
    value {
      b: true
    }
  }
}
node {
  name: "MobilenetV2/expanded_conv_1/expand/weights/read"
  op: "Identity"
  input: "MobilenetV2/expanded_conv_1/expand/weights"
  attr {
    key: "T"
    value {
      type: DT_FLOAT
    }
  }
  attr {
    key: "_class"
    value {
      list {
        s: "loc:@MobilenetV2/expanded_conv_1/expand/weights"
      }
    }
  }
}
node {
  name: "MobilenetV2/expanded_conv_1/expand/kernel/Regularizer/l2_regularizer/scale"
  op: "Const"
  attr {
    key: "dtype"
    value {
      type: DT_FLOAT
    }
  }
  attr {
    key: "value"
    value {
      tensor {
        dtype: DT_FLOAT
        tensor_shape {
        }
        float_val: 3.9999998989515007e-05
      }
    }
  }
}
node {
  name: "MobilenetV2/expanded_conv_1/expand/kernel/Regularizer/l2_regularizer/L2Loss"
  op: "L2Loss"
  input: "MobilenetV2/expanded_conv_1/expand/weights/read"
  attr {
    key: "T"
    value {
      type: DT_FLOAT
    }
  }
}
node {
  name: "MobilenetV2/expanded_conv_1/expand/kernel/Regularizer/l2_regularizer"
  op: "Mul"
  input: "MobilenetV2/expanded_conv_1/expand/kernel/Regularizer/l2_regularizer/scale"
  input: "MobilenetV2/expanded_conv_1/expand/kernel/Regularizer/l2_regularizer/L2Loss"
  attr {
    key: "T"
    value {
      type: DT_FLOAT
    }
  }
}
node {
  name: "MobilenetV2/expanded_conv_1/expand/dilation_rate"
  op: "Const"
  attr {
    key: "dtype"
    value {
      type: DT_INT32
    }
  }
  attr {
    key: "value"
    value {
      tensor {
        dtype: DT_INT32
        tensor_shape {
          dim {
            size: 2
          }
        }
        tensor_content: "\001\000\000\000\001\000\000\000"
      }
    }
  }
}
node {
  name: "MobilenetV2/expanded_conv_1/expand/Conv2D"
  op: "Conv2D"
  input: "MobilenetV2/expanded_conv_1/input"
  input: "MobilenetV2/expanded_conv_1/expand/weights/read"
  attr {
    key: "T"
    value {
      type: DT_FLOAT
    }
  }
  attr {
    key: "data_format"
    value {
      s: "NHWC"
    }
  }
  attr {
    key: "dilations"
    value {
      list {
        i: 1
        i: 1
        i: 1
        i: 1
      }
    }
  }
  attr {
    key: "explicit_paddings"
    value {
      list {
      }
    }
  }
  attr {
    key: "padding"
    value {
      s: "SAME"
    }
  }
  attr {
    key: "strides"
    value {
      list {
        i: 1
        i: 1
        i: 1
        i: 1
      }
    }
  }
  attr {
    key: "use_cudnn_on_gpu"
    value {
      b: true
    }
  }
}
node {
  name: "MobilenetV2/expanded_conv_1/expand/BatchNorm/gamma/Initializer/ones"
  op: "Const"
  attr {
    key: "_class"
    value {
      list {
        s: "loc:@MobilenetV2/expanded_conv_1/expand/BatchNorm/gamma"
      }
    }
  }
  attr {
    key: "dtype"
    value {
      type: DT_FLOAT
    }
  }
  attr {
    key: "value"
    value {
      tensor {
        dtype: DT_FLOAT
        tensor_shape {
          dim {
            size: 48
          }
        }
        float_val: 1.0
      }
    }
  }
}
node {
  name: "MobilenetV2/expanded_conv_1/expand/BatchNorm/gamma"
  op: "VariableV2"
  attr {
    key: "_class"
    value {
      list {
        s: "loc:@MobilenetV2/expanded_conv_1/expand/BatchNorm/gamma"
      }
    }
  }
  attr {
    key: "container"
    value {
      s: ""
    }
  }
  attr {
    key: "dtype"
    value {
      type: DT_FLOAT
    }
  }
  attr {
    key: "shape"
    value {
      shape {
        dim {
          size: 48
        }
      }
    }
  }
  attr {
    key: "shared_name"
    value {
      s: ""
    }
  }
}
node {
  name: "MobilenetV2/expanded_conv_1/expand/BatchNorm/gamma/Assign"
  op: "Assign"
  input: "MobilenetV2/expanded_conv_1/expand/BatchNorm/gamma"
  input: "MobilenetV2/expanded_conv_1/expand/BatchNorm/gamma/Initializer/ones"
  attr {
    key: "T"
    value {
      type: DT_FLOAT
    }
  }
  attr {
    key: "_class"
    value {
      list {
        s: "loc:@MobilenetV2/expanded_conv_1/expand/BatchNorm/gamma"
      }
    }
  }
  attr {
    key: "use_locking"
    value {
      b: true
    }
  }
  attr {
    key: "validate_shape"
    value {
      b: true
    }
  }
}
node {
  name: "MobilenetV2/expanded_conv_1/expand/BatchNorm/gamma/read"
  op: "Identity"
  input: "MobilenetV2/expanded_conv_1/expand/BatchNorm/gamma"
  attr {
    key: "T"
    value {
      type: DT_FLOAT
    }
  }
  attr {
    key: "_class"
    value {
      list {
        s: "loc:@MobilenetV2/expanded_conv_1/expand/BatchNorm/gamma"
      }
    }
  }
}
node {
  name: "MobilenetV2/expanded_conv_1/expand/BatchNorm/beta/Initializer/zeros"
  op: "Const"
  attr {
    key: "_class"
    value {
      list {
        s: "loc:@MobilenetV2/expanded_conv_1/expand/BatchNorm/beta"
      }
    }
  }
  attr {
    key: "dtype"
    value {
      type: DT_FLOAT
    }
  }
  attr {
    key: "value"
    value {
      tensor {
        dtype: DT_FLOAT
        tensor_shape {
          dim {
            size: 48
          }
        }
        float_val: 0.0
      }
    }
  }
}
node {
  name: "MobilenetV2/expanded_conv_1/expand/BatchNorm/beta"
  op: "VariableV2"
  attr {
    key: "_class"
    value {
      list {
        s: "loc:@MobilenetV2/expanded_conv_1/expand/BatchNorm/beta"
      }
    }
  }
  attr {
    key: "container"
    value {
      s: ""
    }
  }
  attr {
    key: "dtype"
    value {
      type: DT_FLOAT
    }
  }
  attr {
    key: "shape"
    value {
      shape {
        dim {
          size: 48
        }
      }
    }
  }
  attr {
    key: "shared_name"
    value {
      s: ""
    }
  }
}
node {
  name: "MobilenetV2/expanded_conv_1/expand/BatchNorm/beta/Assign"
  op: "Assign"
  input: "MobilenetV2/expanded_conv_1/expand/BatchNorm/beta"
  input: "MobilenetV2/expanded_conv_1/expand/BatchNorm/beta/Initializer/zeros"
  attr {
    key: "T"
    value {
      type: DT_FLOAT
    }
  }
  attr {
    key: "_class"
    value {
      list {
        s: "loc:@MobilenetV2/expanded_conv_1/expand/BatchNorm/beta"
      }
    }
  }
  attr {
    key: "use_locking"
    value {
      b: true
    }
  }
  attr {
    key: "validate_shape"
    value {
      b: true
    }
  }
}
node {
  name: "MobilenetV2/expanded_conv_1/expand/BatchNorm/beta/read"
  op: "Identity"
  input: "MobilenetV2/expanded_conv_1/expand/BatchNorm/beta"
  attr {
    key: "T"
    value {
      type: DT_FLOAT
    }
  }
  attr {
    key: "_class"
    value {
      list {
        s: "loc:@MobilenetV2/expanded_conv_1/expand/BatchNorm/beta"
      }
    }
  }
}
node {
  name: "MobilenetV2/expanded_conv_1/expand/BatchNorm/moving_mean/Initializer/zeros"
  op: "Const"
  attr {
    key: "_class"
    value {
      list {
        s: "loc:@MobilenetV2/expanded_conv_1/expand/BatchNorm/moving_mean"
      }
    }
  }
  attr {
    key: "dtype"
    value {
      type: DT_FLOAT
    }
  }
  attr {
    key: "value"
    value {
      tensor {
        dtype: DT_FLOAT
        tensor_shape {
          dim {
            size: 48
          }
        }
        float_val: 0.0
      }
    }
  }
}
node {
  name: "MobilenetV2/expanded_conv_1/expand/BatchNorm/moving_mean"
  op: "VariableV2"
  attr {
    key: "_class"
    value {
      list {
        s: "loc:@MobilenetV2/expanded_conv_1/expand/BatchNorm/moving_mean"
      }
    }
  }
  attr {
    key: "container"
    value {
      s: ""
    }
  }
  attr {
    key: "dtype"
    value {
      type: DT_FLOAT
    }
  }
  attr {
    key: "shape"
    value {
      shape {
        dim {
          size: 48
        }
      }
    }
  }
  attr {
    key: "shared_name"
    value {
      s: ""
    }
  }
}
node {
  name: "MobilenetV2/expanded_conv_1/expand/BatchNorm/moving_mean/Assign"
  op: "Assign"
  input: "MobilenetV2/expanded_conv_1/expand/BatchNorm/moving_mean"
  input: "MobilenetV2/expanded_conv_1/expand/BatchNorm/moving_mean/Initializer/zeros"
  attr {
    key: "T"
    value {
      type: DT_FLOAT
    }
  }
  attr {
    key: "_class"
    value {
      list {
        s: "loc:@MobilenetV2/expanded_conv_1/expand/BatchNorm/moving_mean"
      }
    }
  }
  attr {
    key: "use_locking"
    value {
      b: true
    }
  }
  attr {
    key: "validate_shape"
    value {
      b: true
    }
  }
}
node {
  name: "MobilenetV2/expanded_conv_1/expand/BatchNorm/moving_mean/read"
  op: "Identity"
  input: "MobilenetV2/expanded_conv_1/expand/BatchNorm/moving_mean"
  attr {
    key: "T"
    value {
      type: DT_FLOAT
    }
  }
  attr {
    key: "_class"
    value {
      list {
        s: "loc:@MobilenetV2/expanded_conv_1/expand/BatchNorm/moving_mean"
      }
    }
  }
}
node {
  name: "MobilenetV2/expanded_conv_1/expand/BatchNorm/moving_variance/Initializer/ones"
  op: "Const"
  attr {
    key: "_class"
    value {
      list {
        s: "loc:@MobilenetV2/expanded_conv_1/expand/BatchNorm/moving_variance"
      }
    }
  }
  attr {
    key: "dtype"
    value {
      type: DT_FLOAT
    }
  }
  attr {
    key: "value"
    value {
      tensor {
        dtype: DT_FLOAT
        tensor_shape {
          dim {
            size: 48
          }
        }
        float_val: 1.0
      }
    }
  }
}
node {
  name: "MobilenetV2/expanded_conv_1/expand/BatchNorm/moving_variance"
  op: "VariableV2"
  attr {
    key: "_class"
    value {
      list {
        s: "loc:@MobilenetV2/expanded_conv_1/expand/BatchNorm/moving_variance"
      }
    }
  }
  attr {
    key: "container"
    value {
      s: ""
    }
  }
  attr {
    key: "dtype"
    value {
      type: DT_FLOAT
    }
  }
  attr {
    key: "shape"
    value {
      shape {
        dim {
          size: 48
        }
      }
    }
  }
  attr {
    key: "shared_name"
    value {
      s: ""
    }
  }
}
node {
  name: "MobilenetV2/expanded_conv_1/expand/BatchNorm/moving_variance/Assign"
  op: "Assign"
  input: "MobilenetV2/expanded_conv_1/expand/BatchNorm/moving_variance"
  input: "MobilenetV2/expanded_conv_1/expand/BatchNorm/moving_variance/Initializer/ones"
  attr {
    key: "T"
    value {
      type: DT_FLOAT
    }
  }
  attr {
    key: "_class"
    value {
      list {
        s: "loc:@MobilenetV2/expanded_conv_1/expand/BatchNorm/moving_variance"
      }
    }
  }
  attr {
    key: "use_locking"
    value {
      b: true
    }
  }
  attr {
    key: "validate_shape"
    value {
      b: true
    }
  }
}
node {
  name: "MobilenetV2/expanded_conv_1/expand/BatchNorm/moving_variance/read"
  op: "Identity"
  input: "MobilenetV2/expanded_conv_1/expand/BatchNorm/moving_variance"
  attr {
    key: "T"
    value {
      type: DT_FLOAT
    }
  }
  attr {
    key: "_class"
    value {
      list {
        s: "loc:@MobilenetV2/expanded_conv_1/expand/BatchNorm/moving_variance"
      }
    }
  }
}
node {
  name: "MobilenetV2/expanded_conv_1/expand/BatchNorm/FusedBatchNormV3"
  op: "FusedBatchNormV3"
  input: "MobilenetV2/expanded_conv_1/expand/Conv2D"
  input: "MobilenetV2/expanded_conv_1/expand/BatchNorm/gamma/read"
  input: "MobilenetV2/expanded_conv_1/expand/BatchNorm/beta/read"
  input: "MobilenetV2/expanded_conv_1/expand/BatchNorm/moving_mean/read"
  input: "MobilenetV2/expanded_conv_1/expand/BatchNorm/moving_variance/read"
  attr {
    key: "T"
    value {
      type: DT_FLOAT
    }
  }
  attr {
    key: "U"
    value {
      type: DT_FLOAT
    }
  }
  attr {
    key: "data_format"
    value {
      s: "NHWC"
    }
  }
  attr {
    key: "epsilon"
    value {
      f: 0.0010000000474974513
    }
  }
  attr {
    key: "is_training"
    value {
      b: false
    }
  }
}
node {
  name: "MobilenetV2/expanded_conv_1/expand/BatchNorm/Const"
  op: "Const"
  attr {
    key: "dtype"
    value {
      type: DT_FLOAT
    }
  }
  attr {
    key: "value"
    value {
      tensor {
        dtype: DT_FLOAT
        tensor_shape {
        }
        float_val: 0.996999979019165
      }
    }
  }
}
node {
  name: "MobilenetV2/expanded_conv_1/expand/Relu6"
  op: "Relu6"
  input: "MobilenetV2/expanded_conv_1/expand/BatchNorm/FusedBatchNormV3"
  attr {
    key: "T"
    value {
      type: DT_FLOAT
    }
  }
}
node {
  name: "MobilenetV2/expanded_conv_1/expansion_output"
  op: "Identity"
  input: "MobilenetV2/expanded_conv_1/expand/Relu6"
  attr {
    key: "T"
    value {
      type: DT_FLOAT
    }
  }
}
node {
  name: "MobilenetV2/expanded_conv_1/depthwise/depthwise_weights/Initializer/truncated_normal/shape"
  op: "Const"
  attr {
    key: "_class"
    value {
      list {
        s: "loc:@MobilenetV2/expanded_conv_1/depthwise/depthwise_weights"
      }
    }
  }
  attr {
    key: "dtype"
    value {
      type: DT_INT32
    }
  }
  attr {
    key: "value"
    value {
      tensor {
        dtype: DT_INT32
        tensor_shape {
          dim {
            size: 4
          }
        }
        tensor_content: "\003\000\000\000\003\000\000\0000\000\000\000\001\000\000\000"
      }
    }
  }
}
node {
  name: "MobilenetV2/expanded_conv_1/depthwise/depthwise_weights/Initializer/truncated_normal/mean"
  op: "Const"
  attr {
    key: "_class"
    value {
      list {
        s: "loc:@MobilenetV2/expanded_conv_1/depthwise/depthwise_weights"
      }
    }
  }
  attr {
    key: "dtype"
    value {
      type: DT_FLOAT
    }
  }
  attr {
    key: "value"
    value {
      tensor {
        dtype: DT_FLOAT
        tensor_shape {
        }
        float_val: 0.0
      }
    }
  }
}
node {
  name: "MobilenetV2/expanded_conv_1/depthwise/depthwise_weights/Initializer/truncated_normal/stddev"
  op: "Const"
  attr {
    key: "_class"
    value {
      list {
        s: "loc:@MobilenetV2/expanded_conv_1/depthwise/depthwise_weights"
      }
    }
  }
  attr {
    key: "dtype"
    value {
      type: DT_FLOAT
    }
  }
  attr {
    key: "value"
    value {
      tensor {
        dtype: DT_FLOAT
        tensor_shape {
        }
        float_val: 0.09000000357627869
      }
    }
  }
}
node {
  name: "MobilenetV2/expanded_conv_1/depthwise/depthwise_weights/Initializer/truncated_normal/TruncatedNormal"
  op: "TruncatedNormal"
  input: "MobilenetV2/expanded_conv_1/depthwise/depthwise_weights/Initializer/truncated_normal/shape"
  attr {
    key: "T"
    value {
      type: DT_INT32
    }
  }
  attr {
    key: "_class"
    value {
      list {
        s: "loc:@MobilenetV2/expanded_conv_1/depthwise/depthwise_weights"
      }
    }
  }
  attr {
    key: "dtype"
    value {
      type: DT_FLOAT
    }
  }
  attr {
    key: "seed"
    value {
      i: 0
    }
  }
  attr {
    key: "seed2"
    value {
      i: 0
    }
  }
}
node {
  name: "MobilenetV2/expanded_conv_1/depthwise/depthwise_weights/Initializer/truncated_normal/mul"
  op: "Mul"
  input: "MobilenetV2/expanded_conv_1/depthwise/depthwise_weights/Initializer/truncated_normal/TruncatedNormal"
  input: "MobilenetV2/expanded_conv_1/depthwise/depthwise_weights/Initializer/truncated_normal/stddev"
  attr {
    key: "T"
    value {
      type: DT_FLOAT
    }
  }
  attr {
    key: "_class"
    value {
      list {
        s: "loc:@MobilenetV2/expanded_conv_1/depthwise/depthwise_weights"
      }
    }
  }
}
node {
  name: "MobilenetV2/expanded_conv_1/depthwise/depthwise_weights/Initializer/truncated_normal"
  op: "Add"
  input: "MobilenetV2/expanded_conv_1/depthwise/depthwise_weights/Initializer/truncated_normal/mul"
  input: "MobilenetV2/expanded_conv_1/depthwise/depthwise_weights/Initializer/truncated_normal/mean"
  attr {
    key: "T"
    value {
      type: DT_FLOAT
    }
  }
  attr {
    key: "_class"
    value {
      list {
        s: "loc:@MobilenetV2/expanded_conv_1/depthwise/depthwise_weights"
      }
    }
  }
}
node {
  name: "MobilenetV2/expanded_conv_1/depthwise/depthwise_weights"
  op: "VariableV2"
  attr {
    key: "_class"
    value {
      list {
        s: "loc:@MobilenetV2/expanded_conv_1/depthwise/depthwise_weights"
      }
    }
  }
  attr {
    key: "container"
    value {
      s: ""
    }
  }
  attr {
    key: "dtype"
    value {
      type: DT_FLOAT
    }
  }
  attr {
    key: "shape"
    value {
      shape {
        dim {
          size: 3
        }
        dim {
          size: 3
        }
        dim {
          size: 48
        }
        dim {
          size: 1
        }
      }
    }
  }
  attr {
    key: "shared_name"
    value {
      s: ""
    }
  }
}
node {
  name: "MobilenetV2/expanded_conv_1/depthwise/depthwise_weights/Assign"
  op: "Assign"
  input: "MobilenetV2/expanded_conv_1/depthwise/depthwise_weights"
  input: "MobilenetV2/expanded_conv_1/depthwise/depthwise_weights/Initializer/truncated_normal"
  attr {
    key: "T"
    value {
      type: DT_FLOAT
    }
  }
  attr {
    key: "_class"
    value {
      list {
        s: "loc:@MobilenetV2/expanded_conv_1/depthwise/depthwise_weights"
      }
    }
  }
  attr {
    key: "use_locking"
    value {
      b: true
    }
  }
  attr {
    key: "validate_shape"
    value {
      b: true
    }
  }
}
node {
  name: "MobilenetV2/expanded_conv_1/depthwise/depthwise_weights/read"
  op: "Identity"
  input: "MobilenetV2/expanded_conv_1/depthwise/depthwise_weights"
  attr {
    key: "T"
    value {
      type: DT_FLOAT
    }
  }
  attr {
    key: "_class"
    value {
      list {
        s: "loc:@MobilenetV2/expanded_conv_1/depthwise/depthwise_weights"
      }
    }
  }
}
node {
  name: "MobilenetV2/expanded_conv_1/depthwise/depthwise/Shape"
  op: "Const"
  attr {
    key: "dtype"
    value {
      type: DT_INT32
    }
  }
  attr {
    key: "value"
    value {
      tensor {
        dtype: DT_INT32
        tensor_shape {
          dim {
            size: 4
          }
        }
        tensor_content: "\003\000\000\000\003\000\000\0000\000\000\000\001\000\000\000"
      }
    }
  }
}
node {
  name: "MobilenetV2/expanded_conv_1/depthwise/depthwise/dilation_rate"
  op: "Const"
  attr {
    key: "dtype"
    value {
      type: DT_INT32
    }
  }
  attr {
    key: "value"
    value {
      tensor {
        dtype: DT_INT32
        tensor_shape {
          dim {
            size: 2
          }
        }
        tensor_content: "\001\000\000\000\001\000\000\000"
      }
    }
  }
}
node {
  name: "MobilenetV2/expanded_conv_1/depthwise/depthwise"
  op: "DepthwiseConv2dNative"
  input: "MobilenetV2/expanded_conv_1/expansion_output"
  input: "MobilenetV2/expanded_conv_1/depthwise/depthwise_weights/read"
  attr {
    key: "T"
    value {
      type: DT_FLOAT
    }
  }
  attr {
    key: "data_format"
    value {
      s: "NHWC"
    }
  }
  attr {
    key: "dilations"
    value {
      list {
        i: 1
        i: 1
        i: 1
        i: 1
      }
    }
  }
  attr {
    key: "padding"
    value {
      s: "SAME"
    }
  }
  attr {
    key: "strides"
    value {
      list {
        i: 1
        i: 2
        i: 2
        i: 1
      }
    }
  }
}
node {
  name: "MobilenetV2/expanded_conv_1/depthwise/BatchNorm/gamma/Initializer/ones"
  op: "Const"
  attr {
    key: "_class"
    value {
      list {
        s: "loc:@MobilenetV2/expanded_conv_1/depthwise/BatchNorm/gamma"
      }
    }
  }
  attr {
    key: "dtype"
    value {
      type: DT_FLOAT
    }
  }
  attr {
    key: "value"
    value {
      tensor {
        dtype: DT_FLOAT
        tensor_shape {
          dim {
            size: 48
          }
        }
        float_val: 1.0
      }
    }
  }
}
node {
  name: "MobilenetV2/expanded_conv_1/depthwise/BatchNorm/gamma"
  op: "VariableV2"
  attr {
    key: "_class"
    value {
      list {
        s: "loc:@MobilenetV2/expanded_conv_1/depthwise/BatchNorm/gamma"
      }
    }
  }
  attr {
    key: "container"
    value {
      s: ""
    }
  }
  attr {
    key: "dtype"
    value {
      type: DT_FLOAT
    }
  }
  attr {
    key: "shape"
    value {
      shape {
        dim {
          size: 48
        }
      }
    }
  }
  attr {
    key: "shared_name"
    value {
      s: ""
    }
  }
}
node {
  name: "MobilenetV2/expanded_conv_1/depthwise/BatchNorm/gamma/Assign"
  op: "Assign"
  input: "MobilenetV2/expanded_conv_1/depthwise/BatchNorm/gamma"
  input: "MobilenetV2/expanded_conv_1/depthwise/BatchNorm/gamma/Initializer/ones"
  attr {
    key: "T"
    value {
      type: DT_FLOAT
    }
  }
  attr {
    key: "_class"
    value {
      list {
        s: "loc:@MobilenetV2/expanded_conv_1/depthwise/BatchNorm/gamma"
      }
    }
  }
  attr {
    key: "use_locking"
    value {
      b: true
    }
  }
  attr {
    key: "validate_shape"
    value {
      b: true
    }
  }
}
node {
  name: "MobilenetV2/expanded_conv_1/depthwise/BatchNorm/gamma/read"
  op: "Identity"
  input: "MobilenetV2/expanded_conv_1/depthwise/BatchNorm/gamma"
  attr {
    key: "T"
    value {
      type: DT_FLOAT
    }
  }
  attr {
    key: "_class"
    value {
      list {
        s: "loc:@MobilenetV2/expanded_conv_1/depthwise/BatchNorm/gamma"
      }
    }
  }
}
node {
  name: "MobilenetV2/expanded_conv_1/depthwise/BatchNorm/beta/Initializer/zeros"
  op: "Const"
  attr {
    key: "_class"
    value {
      list {
        s: "loc:@MobilenetV2/expanded_conv_1/depthwise/BatchNorm/beta"
      }
    }
  }
  attr {
    key: "dtype"
    value {
      type: DT_FLOAT
    }
  }
  attr {
    key: "value"
    value {
      tensor {
        dtype: DT_FLOAT
        tensor_shape {
          dim {
            size: 48
          }
        }
        float_val: 0.0
      }
    }
  }
}
node {
  name: "MobilenetV2/expanded_conv_1/depthwise/BatchNorm/beta"
  op: "VariableV2"
  attr {
    key: "_class"
    value {
      list {
        s: "loc:@MobilenetV2/expanded_conv_1/depthwise/BatchNorm/beta"
      }
    }
  }
  attr {
    key: "container"
    value {
      s: ""
    }
  }
  attr {
    key: "dtype"
    value {
      type: DT_FLOAT
    }
  }
  attr {
    key: "shape"
    value {
      shape {
        dim {
          size: 48
        }
      }
    }
  }
  attr {
    key: "shared_name"
    value {
      s: ""
    }
  }
}
node {
  name: "MobilenetV2/expanded_conv_1/depthwise/BatchNorm/beta/Assign"
  op: "Assign"
  input: "MobilenetV2/expanded_conv_1/depthwise/BatchNorm/beta"
  input: "MobilenetV2/expanded_conv_1/depthwise/BatchNorm/beta/Initializer/zeros"
  attr {
    key: "T"
    value {
      type: DT_FLOAT
    }
  }
  attr {
    key: "_class"
    value {
      list {
        s: "loc:@MobilenetV2/expanded_conv_1/depthwise/BatchNorm/beta"
      }
    }
  }
  attr {
    key: "use_locking"
    value {
      b: true
    }
  }
  attr {
    key: "validate_shape"
    value {
      b: true
    }
  }
}
node {
  name: "MobilenetV2/expanded_conv_1/depthwise/BatchNorm/beta/read"
  op: "Identity"
  input: "MobilenetV2/expanded_conv_1/depthwise/BatchNorm/beta"
  attr {
    key: "T"
    value {
      type: DT_FLOAT
    }
  }
  attr {
    key: "_class"
    value {
      list {
        s: "loc:@MobilenetV2/expanded_conv_1/depthwise/BatchNorm/beta"
      }
    }
  }
}
node {
  name: "MobilenetV2/expanded_conv_1/depthwise/BatchNorm/moving_mean/Initializer/zeros"
  op: "Const"
  attr {
    key: "_class"
    value {
      list {
        s: "loc:@MobilenetV2/expanded_conv_1/depthwise/BatchNorm/moving_mean"
      }
    }
  }
  attr {
    key: "dtype"
    value {
      type: DT_FLOAT
    }
  }
  attr {
    key: "value"
    value {
      tensor {
        dtype: DT_FLOAT
        tensor_shape {
          dim {
            size: 48
          }
        }
        float_val: 0.0
      }
    }
  }
}
node {
  name: "MobilenetV2/expanded_conv_1/depthwise/BatchNorm/moving_mean"
  op: "VariableV2"
  attr {
    key: "_class"
    value {
      list {
        s: "loc:@MobilenetV2/expanded_conv_1/depthwise/BatchNorm/moving_mean"
      }
    }
  }
  attr {
    key: "container"
    value {
      s: ""
    }
  }
  attr {
    key: "dtype"
    value {
      type: DT_FLOAT
    }
  }
  attr {
    key: "shape"
    value {
      shape {
        dim {
          size: 48
        }
      }
    }
  }
  attr {
    key: "shared_name"
    value {
      s: ""
    }
  }
}
node {
  name: "MobilenetV2/expanded_conv_1/depthwise/BatchNorm/moving_mean/Assign"
  op: "Assign"
  input: "MobilenetV2/expanded_conv_1/depthwise/BatchNorm/moving_mean"
  input: "MobilenetV2/expanded_conv_1/depthwise/BatchNorm/moving_mean/Initializer/zeros"
  attr {
    key: "T"
    value {
      type: DT_FLOAT
    }
  }
  attr {
    key: "_class"
    value {
      list {
        s: "loc:@MobilenetV2/expanded_conv_1/depthwise/BatchNorm/moving_mean"
      }
    }
  }
  attr {
    key: "use_locking"
    value {
      b: true
    }
  }
  attr {
    key: "validate_shape"
    value {
      b: true
    }
  }
}
node {
  name: "MobilenetV2/expanded_conv_1/depthwise/BatchNorm/moving_mean/read"
  op: "Identity"
  input: "MobilenetV2/expanded_conv_1/depthwise/BatchNorm/moving_mean"
  attr {
    key: "T"
    value {
      type: DT_FLOAT
    }
  }
  attr {
    key: "_class"
    value {
      list {
        s: "loc:@MobilenetV2/expanded_conv_1/depthwise/BatchNorm/moving_mean"
      }
    }
  }
}
node {
  name: "MobilenetV2/expanded_conv_1/depthwise/BatchNorm/moving_variance/Initializer/ones"
  op: "Const"
  attr {
    key: "_class"
    value {
      list {
        s: "loc:@MobilenetV2/expanded_conv_1/depthwise/BatchNorm/moving_variance"
      }
    }
  }
  attr {
    key: "dtype"
    value {
      type: DT_FLOAT
    }
  }
  attr {
    key: "value"
    value {
      tensor {
        dtype: DT_FLOAT
        tensor_shape {
          dim {
            size: 48
          }
        }
        float_val: 1.0
      }
    }
  }
}
node {
  name: "MobilenetV2/expanded_conv_1/depthwise/BatchNorm/moving_variance"
  op: "VariableV2"
  attr {
    key: "_class"
    value {
      list {
        s: "loc:@MobilenetV2/expanded_conv_1/depthwise/BatchNorm/moving_variance"
      }
    }
  }
  attr {
    key: "container"
    value {
      s: ""
    }
  }
  attr {
    key: "dtype"
    value {
      type: DT_FLOAT
    }
  }
  attr {
    key: "shape"
    value {
      shape {
        dim {
          size: 48
        }
      }
    }
  }
  attr {
    key: "shared_name"
    value {
      s: ""
    }
  }
}
node {
  name: "MobilenetV2/expanded_conv_1/depthwise/BatchNorm/moving_variance/Assign"
  op: "Assign"
  input: "MobilenetV2/expanded_conv_1/depthwise/BatchNorm/moving_variance"
  input: "MobilenetV2/expanded_conv_1/depthwise/BatchNorm/moving_variance/Initializer/ones"
  attr {
    key: "T"
    value {
      type: DT_FLOAT
    }
  }
  attr {
    key: "_class"
    value {
      list {
        s: "loc:@MobilenetV2/expanded_conv_1/depthwise/BatchNorm/moving_variance"
      }
    }
  }
  attr {
    key: "use_locking"
    value {
      b: true
    }
  }
  attr {
    key: "validate_shape"
    value {
      b: true
    }
  }
}
node {
  name: "MobilenetV2/expanded_conv_1/depthwise/BatchNorm/moving_variance/read"
  op: "Identity"
  input: "MobilenetV2/expanded_conv_1/depthwise/BatchNorm/moving_variance"
  attr {
    key: "T"
    value {
      type: DT_FLOAT
    }
  }
  attr {
    key: "_class"
    value {
      list {
        s: "loc:@MobilenetV2/expanded_conv_1/depthwise/BatchNorm/moving_variance"
      }
    }
  }
}
node {
  name: "MobilenetV2/expanded_conv_1/depthwise/BatchNorm/FusedBatchNormV3"
  op: "FusedBatchNormV3"
  input: "MobilenetV2/expanded_conv_1/depthwise/depthwise"
  input: "MobilenetV2/expanded_conv_1/depthwise/BatchNorm/gamma/read"
  input: "MobilenetV2/expanded_conv_1/depthwise/BatchNorm/beta/read"
  input: "MobilenetV2/expanded_conv_1/depthwise/BatchNorm/moving_mean/read"
  input: "MobilenetV2/expanded_conv_1/depthwise/BatchNorm/moving_variance/read"
  attr {
    key: "T"
    value {
      type: DT_FLOAT
    }
  }
  attr {
    key: "U"
    value {
      type: DT_FLOAT
    }
  }
  attr {
    key: "data_format"
    value {
      s: "NHWC"
    }
  }
  attr {
    key: "epsilon"
    value {
      f: 0.0010000000474974513
    }
  }
  attr {
    key: "is_training"
    value {
      b: false
    }
  }
}
node {
  name: "MobilenetV2/expanded_conv_1/depthwise/BatchNorm/Const"
  op: "Const"
  attr {
    key: "dtype"
    value {
      type: DT_FLOAT
    }
  }
  attr {
    key: "value"
    value {
      tensor {
        dtype: DT_FLOAT
        tensor_shape {
        }
        float_val: 0.996999979019165
      }
    }
  }
}
node {
  name: "MobilenetV2/expanded_conv_1/depthwise/Relu6"
  op: "Relu6"
  input: "MobilenetV2/expanded_conv_1/depthwise/BatchNorm/FusedBatchNormV3"
  attr {
    key: "T"
    value {
      type: DT_FLOAT
    }
  }
}
node {
  name: "MobilenetV2/expanded_conv_1/depthwise_output"
  op: "Identity"
  input: "MobilenetV2/expanded_conv_1/depthwise/Relu6"
  attr {
    key: "T"
    value {
      type: DT_FLOAT
    }
  }
}
node {
  name: "MobilenetV2/expanded_conv_1/project/weights/Initializer/truncated_normal/shape"
  op: "Const"
  attr {
    key: "_class"
    value {
      list {
        s: "loc:@MobilenetV2/expanded_conv_1/project/weights"
      }
    }
  }
  attr {
    key: "dtype"
    value {
      type: DT_INT32
    }
  }
  attr {
    key: "value"
    value {
      tensor {
        dtype: DT_INT32
        tensor_shape {
          dim {
            size: 4
          }
        }
        tensor_content: "\001\000\000\000\001\000\000\0000\000\000\000\020\000\000\000"
      }
    }
  }
}
node {
  name: "MobilenetV2/expanded_conv_1/project/weights/Initializer/truncated_normal/mean"
  op: "Const"
  attr {
    key: "_class"
    value {
      list {
        s: "loc:@MobilenetV2/expanded_conv_1/project/weights"
      }
    }
  }
  attr {
    key: "dtype"
    value {
      type: DT_FLOAT
    }
  }
  attr {
    key: "value"
    value {
      tensor {
        dtype: DT_FLOAT
        tensor_shape {
        }
        float_val: 0.0
      }
    }
  }
}
node {
  name: "MobilenetV2/expanded_conv_1/project/weights/Initializer/truncated_normal/stddev"
  op: "Const"
  attr {
    key: "_class"
    value {
      list {
        s: "loc:@MobilenetV2/expanded_conv_1/project/weights"
      }
    }
  }
  attr {
    key: "dtype"
    value {
      type: DT_FLOAT
    }
  }
  attr {
    key: "value"
    value {
      tensor {
        dtype: DT_FLOAT
        tensor_shape {
        }
        float_val: 0.09000000357627869
      }
    }
  }
}
node {
  name: "MobilenetV2/expanded_conv_1/project/weights/Initializer/truncated_normal/TruncatedNormal"
  op: "TruncatedNormal"
  input: "MobilenetV2/expanded_conv_1/project/weights/Initializer/truncated_normal/shape"
  attr {
    key: "T"
    value {
      type: DT_INT32
    }
  }
  attr {
    key: "_class"
    value {
      list {
        s: "loc:@MobilenetV2/expanded_conv_1/project/weights"
      }
    }
  }
  attr {
    key: "dtype"
    value {
      type: DT_FLOAT
    }
  }
  attr {
    key: "seed"
    value {
      i: 0
    }
  }
  attr {
    key: "seed2"
    value {
      i: 0
    }
  }
}
node {
  name: "MobilenetV2/expanded_conv_1/project/weights/Initializer/truncated_normal/mul"
  op: "Mul"
  input: "MobilenetV2/expanded_conv_1/project/weights/Initializer/truncated_normal/TruncatedNormal"
  input: "MobilenetV2/expanded_conv_1/project/weights/Initializer/truncated_normal/stddev"
  attr {
    key: "T"
    value {
      type: DT_FLOAT
    }
  }
  attr {
    key: "_class"
    value {
      list {
        s: "loc:@MobilenetV2/expanded_conv_1/project/weights"
      }
    }
  }
}
node {
  name: "MobilenetV2/expanded_conv_1/project/weights/Initializer/truncated_normal"
  op: "Add"
  input: "MobilenetV2/expanded_conv_1/project/weights/Initializer/truncated_normal/mul"
  input: "MobilenetV2/expanded_conv_1/project/weights/Initializer/truncated_normal/mean"
  attr {
    key: "T"
    value {
      type: DT_FLOAT
    }
  }
  attr {
    key: "_class"
    value {
      list {
        s: "loc:@MobilenetV2/expanded_conv_1/project/weights"
      }
    }
  }
}
node {
  name: "MobilenetV2/expanded_conv_1/project/weights"
  op: "VariableV2"
  attr {
    key: "_class"
    value {
      list {
        s: "loc:@MobilenetV2/expanded_conv_1/project/weights"
      }
    }
  }
  attr {
    key: "container"
    value {
      s: ""
    }
  }
  attr {
    key: "dtype"
    value {
      type: DT_FLOAT
    }
  }
  attr {
    key: "shape"
    value {
      shape {
        dim {
          size: 1
        }
        dim {
          size: 1
        }
        dim {
          size: 48
        }
        dim {
          size: 16
        }
      }
    }
  }
  attr {
    key: "shared_name"
    value {
      s: ""
    }
  }
}
node {
  name: "MobilenetV2/expanded_conv_1/project/weights/Assign"
  op: "Assign"
  input: "MobilenetV2/expanded_conv_1/project/weights"
  input: "MobilenetV2/expanded_conv_1/project/weights/Initializer/truncated_normal"
  attr {
    key: "T"
    value {
      type: DT_FLOAT
    }
  }
  attr {
    key: "_class"
    value {
      list {
        s: "loc:@MobilenetV2/expanded_conv_1/project/weights"
      }
    }
  }
  attr {
    key: "use_locking"
    value {
      b: true
    }
  }
  attr {
    key: "validate_shape"
    value {
      b: true
    }
  }
}
node {
  name: "MobilenetV2/expanded_conv_1/project/weights/read"
  op: "Identity"
  input: "MobilenetV2/expanded_conv_1/project/weights"
  attr {
    key: "T"
    value {
      type: DT_FLOAT
    }
  }
  attr {
    key: "_class"
    value {
      list {
        s: "loc:@MobilenetV2/expanded_conv_1/project/weights"
      }
    }
  }
}
node {
  name: "MobilenetV2/expanded_conv_1/project/kernel/Regularizer/l2_regularizer/scale"
  op: "Const"
  attr {
    key: "dtype"
    value {
      type: DT_FLOAT
    }
  }
  attr {
    key: "value"
    value {
      tensor {
        dtype: DT_FLOAT
        tensor_shape {
        }
        float_val: 3.9999998989515007e-05
      }
    }
  }
}
node {
  name: "MobilenetV2/expanded_conv_1/project/kernel/Regularizer/l2_regularizer/L2Loss"
  op: "L2Loss"
  input: "MobilenetV2/expanded_conv_1/project/weights/read"
  attr {
    key: "T"
    value {
      type: DT_FLOAT
    }
  }
}
node {
  name: "MobilenetV2/expanded_conv_1/project/kernel/Regularizer/l2_regularizer"
  op: "Mul"
  input: "MobilenetV2/expanded_conv_1/project/kernel/Regularizer/l2_regularizer/scale"
  input: "MobilenetV2/expanded_conv_1/project/kernel/Regularizer/l2_regularizer/L2Loss"
  attr {
    key: "T"
    value {
      type: DT_FLOAT
    }
  }
}
node {
  name: "MobilenetV2/expanded_conv_1/project/dilation_rate"
  op: "Const"
  attr {
    key: "dtype"
    value {
      type: DT_INT32
    }
  }
  attr {
    key: "value"
    value {
      tensor {
        dtype: DT_INT32
        tensor_shape {
          dim {
            size: 2
          }
        }
        tensor_content: "\001\000\000\000\001\000\000\000"
      }
    }
  }
}
node {
  name: "MobilenetV2/expanded_conv_1/project/Conv2D"
  op: "Conv2D"
  input: "MobilenetV2/expanded_conv_1/depthwise_output"
  input: "MobilenetV2/expanded_conv_1/project/weights/read"
  attr {
    key: "T"
    value {
      type: DT_FLOAT
    }
  }
  attr {
    key: "data_format"
    value {
      s: "NHWC"
    }
  }
  attr {
    key: "dilations"
    value {
      list {
        i: 1
        i: 1
        i: 1
        i: 1
      }
    }
  }
  attr {
    key: "explicit_paddings"
    value {
      list {
      }
    }
  }
  attr {
    key: "padding"
    value {
      s: "SAME"
    }
  }
  attr {
    key: "strides"
    value {
      list {
        i: 1
        i: 1
        i: 1
        i: 1
      }
    }
  }
  attr {
    key: "use_cudnn_on_gpu"
    value {
      b: true
    }
  }
}
node {
  name: "MobilenetV2/expanded_conv_1/project/BatchNorm/gamma/Initializer/ones"
  op: "Const"
  attr {
    key: "_class"
    value {
      list {
        s: "loc:@MobilenetV2/expanded_conv_1/project/BatchNorm/gamma"
      }
    }
  }
  attr {
    key: "dtype"
    value {
      type: DT_FLOAT
    }
  }
  attr {
    key: "value"
    value {
      tensor {
        dtype: DT_FLOAT
        tensor_shape {
          dim {
            size: 16
          }
        }
        float_val: 1.0
      }
    }
  }
}
node {
  name: "MobilenetV2/expanded_conv_1/project/BatchNorm/gamma"
  op: "VariableV2"
  attr {
    key: "_class"
    value {
      list {
        s: "loc:@MobilenetV2/expanded_conv_1/project/BatchNorm/gamma"
      }
    }
  }
  attr {
    key: "container"
    value {
      s: ""
    }
  }
  attr {
    key: "dtype"
    value {
      type: DT_FLOAT
    }
  }
  attr {
    key: "shape"
    value {
      shape {
        dim {
          size: 16
        }
      }
    }
  }
  attr {
    key: "shared_name"
    value {
      s: ""
    }
  }
}
node {
  name: "MobilenetV2/expanded_conv_1/project/BatchNorm/gamma/Assign"
  op: "Assign"
  input: "MobilenetV2/expanded_conv_1/project/BatchNorm/gamma"
  input: "MobilenetV2/expanded_conv_1/project/BatchNorm/gamma/Initializer/ones"
  attr {
    key: "T"
    value {
      type: DT_FLOAT
    }
  }
  attr {
    key: "_class"
    value {
      list {
        s: "loc:@MobilenetV2/expanded_conv_1/project/BatchNorm/gamma"
      }
    }
  }
  attr {
    key: "use_locking"
    value {
      b: true
    }
  }
  attr {
    key: "validate_shape"
    value {
      b: true
    }
  }
}
node {
  name: "MobilenetV2/expanded_conv_1/project/BatchNorm/gamma/read"
  op: "Identity"
  input: "MobilenetV2/expanded_conv_1/project/BatchNorm/gamma"
  attr {
    key: "T"
    value {
      type: DT_FLOAT
    }
  }
  attr {
    key: "_class"
    value {
      list {
        s: "loc:@MobilenetV2/expanded_conv_1/project/BatchNorm/gamma"
      }
    }
  }
}
node {
  name: "MobilenetV2/expanded_conv_1/project/BatchNorm/beta/Initializer/zeros"
  op: "Const"
  attr {
    key: "_class"
    value {
      list {
        s: "loc:@MobilenetV2/expanded_conv_1/project/BatchNorm/beta"
      }
    }
  }
  attr {
    key: "dtype"
    value {
      type: DT_FLOAT
    }
  }
  attr {
    key: "value"
    value {
      tensor {
        dtype: DT_FLOAT
        tensor_shape {
          dim {
            size: 16
          }
        }
        float_val: 0.0
      }
    }
  }
}
node {
  name: "MobilenetV2/expanded_conv_1/project/BatchNorm/beta"
  op: "VariableV2"
  attr {
    key: "_class"
    value {
      list {
        s: "loc:@MobilenetV2/expanded_conv_1/project/BatchNorm/beta"
      }
    }
  }
  attr {
    key: "container"
    value {
      s: ""
    }
  }
  attr {
    key: "dtype"
    value {
      type: DT_FLOAT
    }
  }
  attr {
    key: "shape"
    value {
      shape {
        dim {
          size: 16
        }
      }
    }
  }
  attr {
    key: "shared_name"
    value {
      s: ""
    }
  }
}
node {
  name: "MobilenetV2/expanded_conv_1/project/BatchNorm/beta/Assign"
  op: "Assign"
  input: "MobilenetV2/expanded_conv_1/project/BatchNorm/beta"
  input: "MobilenetV2/expanded_conv_1/project/BatchNorm/beta/Initializer/zeros"
  attr {
    key: "T"
    value {
      type: DT_FLOAT
    }
  }
  attr {
    key: "_class"
    value {
      list {
        s: "loc:@MobilenetV2/expanded_conv_1/project/BatchNorm/beta"
      }
    }
  }
  attr {
    key: "use_locking"
    value {
      b: true
    }
  }
  attr {
    key: "validate_shape"
    value {
      b: true
    }
  }
}
node {
  name: "MobilenetV2/expanded_conv_1/project/BatchNorm/beta/read"
  op: "Identity"
  input: "MobilenetV2/expanded_conv_1/project/BatchNorm/beta"
  attr {
    key: "T"
    value {
      type: DT_FLOAT
    }
  }
  attr {
    key: "_class"
    value {
      list {
        s: "loc:@MobilenetV2/expanded_conv_1/project/BatchNorm/beta"
      }
    }
  }
}
node {
  name: "MobilenetV2/expanded_conv_1/project/BatchNorm/moving_mean/Initializer/zeros"
  op: "Const"
  attr {
    key: "_class"
    value {
      list {
        s: "loc:@MobilenetV2/expanded_conv_1/project/BatchNorm/moving_mean"
      }
    }
  }
  attr {
    key: "dtype"
    value {
      type: DT_FLOAT
    }
  }
  attr {
    key: "value"
    value {
      tensor {
        dtype: DT_FLOAT
        tensor_shape {
          dim {
            size: 16
          }
        }
        float_val: 0.0
      }
    }
  }
}
node {
  name: "MobilenetV2/expanded_conv_1/project/BatchNorm/moving_mean"
  op: "VariableV2"
  attr {
    key: "_class"
    value {
      list {
        s: "loc:@MobilenetV2/expanded_conv_1/project/BatchNorm/moving_mean"
      }
    }
  }
  attr {
    key: "container"
    value {
      s: ""
    }
  }
  attr {
    key: "dtype"
    value {
      type: DT_FLOAT
    }
  }
  attr {
    key: "shape"
    value {
      shape {
        dim {
          size: 16
        }
      }
    }
  }
  attr {
    key: "shared_name"
    value {
      s: ""
    }
  }
}
node {
  name: "MobilenetV2/expanded_conv_1/project/BatchNorm/moving_mean/Assign"
  op: "Assign"
  input: "MobilenetV2/expanded_conv_1/project/BatchNorm/moving_mean"
  input: "MobilenetV2/expanded_conv_1/project/BatchNorm/moving_mean/Initializer/zeros"
  attr {
    key: "T"
    value {
      type: DT_FLOAT
    }
  }
  attr {
    key: "_class"
    value {
      list {
        s: "loc:@MobilenetV2/expanded_conv_1/project/BatchNorm/moving_mean"
      }
    }
  }
  attr {
    key: "use_locking"
    value {
      b: true
    }
  }
  attr {
    key: "validate_shape"
    value {
      b: true
    }
  }
}
node {
  name: "MobilenetV2/expanded_conv_1/project/BatchNorm/moving_mean/read"
  op: "Identity"
  input: "MobilenetV2/expanded_conv_1/project/BatchNorm/moving_mean"
  attr {
    key: "T"
    value {
      type: DT_FLOAT
    }
  }
  attr {
    key: "_class"
    value {
      list {
        s: "loc:@MobilenetV2/expanded_conv_1/project/BatchNorm/moving_mean"
      }
    }
  }
}
node {
  name: "MobilenetV2/expanded_conv_1/project/BatchNorm/moving_variance/Initializer/ones"
  op: "Const"
  attr {
    key: "_class"
    value {
      list {
        s: "loc:@MobilenetV2/expanded_conv_1/project/BatchNorm/moving_variance"
      }
    }
  }
  attr {
    key: "dtype"
    value {
      type: DT_FLOAT
    }
  }
  attr {
    key: "value"
    value {
      tensor {
        dtype: DT_FLOAT
        tensor_shape {
          dim {
            size: 16
          }
        }
        float_val: 1.0
      }
    }
  }
}
node {
  name: "MobilenetV2/expanded_conv_1/project/BatchNorm/moving_variance"
  op: "VariableV2"
  attr {
    key: "_class"
    value {
      list {
        s: "loc:@MobilenetV2/expanded_conv_1/project/BatchNorm/moving_variance"
      }
    }
  }
  attr {
    key: "container"
    value {
      s: ""
    }
  }
  attr {
    key: "dtype"
    value {
      type: DT_FLOAT
    }
  }
  attr {
    key: "shape"
    value {
      shape {
        dim {
          size: 16
        }
      }
    }
  }
  attr {
    key: "shared_name"
    value {
      s: ""
    }
  }
}
node {
  name: "MobilenetV2/expanded_conv_1/project/BatchNorm/moving_variance/Assign"
  op: "Assign"
  input: "MobilenetV2/expanded_conv_1/project/BatchNorm/moving_variance"
  input: "MobilenetV2/expanded_conv_1/project/BatchNorm/moving_variance/Initializer/ones"
  attr {
    key: "T"
    value {
      type: DT_FLOAT
    }
  }
  attr {
    key: "_class"
    value {
      list {
        s: "loc:@MobilenetV2/expanded_conv_1/project/BatchNorm/moving_variance"
      }
    }
  }
  attr {
    key: "use_locking"
    value {
      b: true
    }
  }
  attr {
    key: "validate_shape"
    value {
      b: true
    }
  }
}
node {
  name: "MobilenetV2/expanded_conv_1/project/BatchNorm/moving_variance/read"
  op: "Identity"
  input: "MobilenetV2/expanded_conv_1/project/BatchNorm/moving_variance"
  attr {
    key: "T"
    value {
      type: DT_FLOAT
    }
  }
  attr {
    key: "_class"
    value {
      list {
        s: "loc:@MobilenetV2/expanded_conv_1/project/BatchNorm/moving_variance"
      }
    }
  }
}
node {
  name: "MobilenetV2/expanded_conv_1/project/BatchNorm/FusedBatchNormV3"
  op: "FusedBatchNormV3"
  input: "MobilenetV2/expanded_conv_1/project/Conv2D"
  input: "MobilenetV2/expanded_conv_1/project/BatchNorm/gamma/read"
  input: "MobilenetV2/expanded_conv_1/project/BatchNorm/beta/read"
  input: "MobilenetV2/expanded_conv_1/project/BatchNorm/moving_mean/read"
  input: "MobilenetV2/expanded_conv_1/project/BatchNorm/moving_variance/read"
  attr {
    key: "T"
    value {
      type: DT_FLOAT
    }
  }
  attr {
    key: "U"
    value {
      type: DT_FLOAT
    }
  }
  attr {
    key: "data_format"
    value {
      s: "NHWC"
    }
  }
  attr {
    key: "epsilon"
    value {
      f: 0.0010000000474974513
    }
  }
  attr {
    key: "is_training"
    value {
      b: false
    }
  }
}
node {
  name: "MobilenetV2/expanded_conv_1/project/BatchNorm/Const"
  op: "Const"
  attr {
    key: "dtype"
    value {
      type: DT_FLOAT
    }
  }
  attr {
    key: "value"
    value {
      tensor {
        dtype: DT_FLOAT
        tensor_shape {
        }
        float_val: 0.996999979019165
      }
    }
  }
}
node {
  name: "MobilenetV2/expanded_conv_1/project/Identity"
  op: "Identity"
  input: "MobilenetV2/expanded_conv_1/project/BatchNorm/FusedBatchNormV3"
  attr {
    key: "T"
    value {
      type: DT_FLOAT
    }
  }
}
node {
  name: "MobilenetV2/expanded_conv_1/output"
  op: "Identity"
  input: "MobilenetV2/expanded_conv_1/project/Identity"
  attr {
    key: "T"
    value {
      type: DT_FLOAT
    }
  }
}
node {
  name: "MobilenetV2/expanded_conv_2/input"
  op: "Identity"
  input: "MobilenetV2/expanded_conv_1/output"
  attr {
    key: "T"
    value {
      type: DT_FLOAT
    }
  }
}
node {
  name: "MobilenetV2/expanded_conv_2/expand/weights/Initializer/truncated_normal/shape"
  op: "Const"
  attr {
    key: "_class"
    value {
      list {
        s: "loc:@MobilenetV2/expanded_conv_2/expand/weights"
      }
    }
  }
  attr {
    key: "dtype"
    value {
      type: DT_INT32
    }
  }
  attr {
    key: "value"
    value {
      tensor {
        dtype: DT_INT32
        tensor_shape {
          dim {
            size: 4
          }
        }
        tensor_content: "\001\000\000\000\001\000\000\000\020\000\000\000`\000\000\000"
      }
    }
  }
}
node {
  name: "MobilenetV2/expanded_conv_2/expand/weights/Initializer/truncated_normal/mean"
  op: "Const"
  attr {
    key: "_class"
    value {
      list {
        s: "loc:@MobilenetV2/expanded_conv_2/expand/weights"
      }
    }
  }
  attr {
    key: "dtype"
    value {
      type: DT_FLOAT
    }
  }
  attr {
    key: "value"
    value {
      tensor {
        dtype: DT_FLOAT
        tensor_shape {
        }
        float_val: 0.0
      }
    }
  }
}
node {
  name: "MobilenetV2/expanded_conv_2/expand/weights/Initializer/truncated_normal/stddev"
  op: "Const"
  attr {
    key: "_class"
    value {
      list {
        s: "loc:@MobilenetV2/expanded_conv_2/expand/weights"
      }
    }
  }
  attr {
    key: "dtype"
    value {
      type: DT_FLOAT
    }
  }
  attr {
    key: "value"
    value {
      tensor {
        dtype: DT_FLOAT
        tensor_shape {
        }
        float_val: 0.09000000357627869
      }
    }
  }
}
node {
  name: "MobilenetV2/expanded_conv_2/expand/weights/Initializer/truncated_normal/TruncatedNormal"
  op: "TruncatedNormal"
  input: "MobilenetV2/expanded_conv_2/expand/weights/Initializer/truncated_normal/shape"
  attr {
    key: "T"
    value {
      type: DT_INT32
    }
  }
  attr {
    key: "_class"
    value {
      list {
        s: "loc:@MobilenetV2/expanded_conv_2/expand/weights"
      }
    }
  }
  attr {
    key: "dtype"
    value {
      type: DT_FLOAT
    }
  }
  attr {
    key: "seed"
    value {
      i: 0
    }
  }
  attr {
    key: "seed2"
    value {
      i: 0
    }
  }
}
node {
  name: "MobilenetV2/expanded_conv_2/expand/weights/Initializer/truncated_normal/mul"
  op: "Mul"
  input: "MobilenetV2/expanded_conv_2/expand/weights/Initializer/truncated_normal/TruncatedNormal"
  input: "MobilenetV2/expanded_conv_2/expand/weights/Initializer/truncated_normal/stddev"
  attr {
    key: "T"
    value {
      type: DT_FLOAT
    }
  }
  attr {
    key: "_class"
    value {
      list {
        s: "loc:@MobilenetV2/expanded_conv_2/expand/weights"
      }
    }
  }
}
node {
  name: "MobilenetV2/expanded_conv_2/expand/weights/Initializer/truncated_normal"
  op: "Add"
  input: "MobilenetV2/expanded_conv_2/expand/weights/Initializer/truncated_normal/mul"
  input: "MobilenetV2/expanded_conv_2/expand/weights/Initializer/truncated_normal/mean"
  attr {
    key: "T"
    value {
      type: DT_FLOAT
    }
  }
  attr {
    key: "_class"
    value {
      list {
        s: "loc:@MobilenetV2/expanded_conv_2/expand/weights"
      }
    }
  }
}
node {
  name: "MobilenetV2/expanded_conv_2/expand/weights"
  op: "VariableV2"
  attr {
    key: "_class"
    value {
      list {
        s: "loc:@MobilenetV2/expanded_conv_2/expand/weights"
      }
    }
  }
  attr {
    key: "container"
    value {
      s: ""
    }
  }
  attr {
    key: "dtype"
    value {
      type: DT_FLOAT
    }
  }
  attr {
    key: "shape"
    value {
      shape {
        dim {
          size: 1
        }
        dim {
          size: 1
        }
        dim {
          size: 16
        }
        dim {
          size: 96
        }
      }
    }
  }
  attr {
    key: "shared_name"
    value {
      s: ""
    }
  }
}
node {
  name: "MobilenetV2/expanded_conv_2/expand/weights/Assign"
  op: "Assign"
  input: "MobilenetV2/expanded_conv_2/expand/weights"
  input: "MobilenetV2/expanded_conv_2/expand/weights/Initializer/truncated_normal"
  attr {
    key: "T"
    value {
      type: DT_FLOAT
    }
  }
  attr {
    key: "_class"
    value {
      list {
        s: "loc:@MobilenetV2/expanded_conv_2/expand/weights"
      }
    }
  }
  attr {
    key: "use_locking"
    value {
      b: true
    }
  }
  attr {
    key: "validate_shape"
    value {
      b: true
    }
  }
}
node {
  name: "MobilenetV2/expanded_conv_2/expand/weights/read"
  op: "Identity"
  input: "MobilenetV2/expanded_conv_2/expand/weights"
  attr {
    key: "T"
    value {
      type: DT_FLOAT
    }
  }
  attr {
    key: "_class"
    value {
      list {
        s: "loc:@MobilenetV2/expanded_conv_2/expand/weights"
      }
    }
  }
}
node {
  name: "MobilenetV2/expanded_conv_2/expand/kernel/Regularizer/l2_regularizer/scale"
  op: "Const"
  attr {
    key: "dtype"
    value {
      type: DT_FLOAT
    }
  }
  attr {
    key: "value"
    value {
      tensor {
        dtype: DT_FLOAT
        tensor_shape {
        }
        float_val: 3.9999998989515007e-05
      }
    }
  }
}
node {
  name: "MobilenetV2/expanded_conv_2/expand/kernel/Regularizer/l2_regularizer/L2Loss"
  op: "L2Loss"
  input: "MobilenetV2/expanded_conv_2/expand/weights/read"
  attr {
    key: "T"
    value {
      type: DT_FLOAT
    }
  }
}
node {
  name: "MobilenetV2/expanded_conv_2/expand/kernel/Regularizer/l2_regularizer"
  op: "Mul"
  input: "MobilenetV2/expanded_conv_2/expand/kernel/Regularizer/l2_regularizer/scale"
  input: "MobilenetV2/expanded_conv_2/expand/kernel/Regularizer/l2_regularizer/L2Loss"
  attr {
    key: "T"
    value {
      type: DT_FLOAT
    }
  }
}
node {
  name: "MobilenetV2/expanded_conv_2/expand/dilation_rate"
  op: "Const"
  attr {
    key: "dtype"
    value {
      type: DT_INT32
    }
  }
  attr {
    key: "value"
    value {
      tensor {
        dtype: DT_INT32
        tensor_shape {
          dim {
            size: 2
          }
        }
        tensor_content: "\001\000\000\000\001\000\000\000"
      }
    }
  }
}
node {
  name: "MobilenetV2/expanded_conv_2/expand/Conv2D"
  op: "Conv2D"
  input: "MobilenetV2/expanded_conv_2/input"
  input: "MobilenetV2/expanded_conv_2/expand/weights/read"
  attr {
    key: "T"
    value {
      type: DT_FLOAT
    }
  }
  attr {
    key: "data_format"
    value {
      s: "NHWC"
    }
  }
  attr {
    key: "dilations"
    value {
      list {
        i: 1
        i: 1
        i: 1
        i: 1
      }
    }
  }
  attr {
    key: "explicit_paddings"
    value {
      list {
      }
    }
  }
  attr {
    key: "padding"
    value {
      s: "SAME"
    }
  }
  attr {
    key: "strides"
    value {
      list {
        i: 1
        i: 1
        i: 1
        i: 1
      }
    }
  }
  attr {
    key: "use_cudnn_on_gpu"
    value {
      b: true
    }
  }
}
node {
  name: "MobilenetV2/expanded_conv_2/expand/BatchNorm/gamma/Initializer/ones"
  op: "Const"
  attr {
    key: "_class"
    value {
      list {
        s: "loc:@MobilenetV2/expanded_conv_2/expand/BatchNorm/gamma"
      }
    }
  }
  attr {
    key: "dtype"
    value {
      type: DT_FLOAT
    }
  }
  attr {
    key: "value"
    value {
      tensor {
        dtype: DT_FLOAT
        tensor_shape {
          dim {
            size: 96
          }
        }
        float_val: 1.0
      }
    }
  }
}
node {
  name: "MobilenetV2/expanded_conv_2/expand/BatchNorm/gamma"
  op: "VariableV2"
  attr {
    key: "_class"
    value {
      list {
        s: "loc:@MobilenetV2/expanded_conv_2/expand/BatchNorm/gamma"
      }
    }
  }
  attr {
    key: "container"
    value {
      s: ""
    }
  }
  attr {
    key: "dtype"
    value {
      type: DT_FLOAT
    }
  }
  attr {
    key: "shape"
    value {
      shape {
        dim {
          size: 96
        }
      }
    }
  }
  attr {
    key: "shared_name"
    value {
      s: ""
    }
  }
}
node {
  name: "MobilenetV2/expanded_conv_2/expand/BatchNorm/gamma/Assign"
  op: "Assign"
  input: "MobilenetV2/expanded_conv_2/expand/BatchNorm/gamma"
  input: "MobilenetV2/expanded_conv_2/expand/BatchNorm/gamma/Initializer/ones"
  attr {
    key: "T"
    value {
      type: DT_FLOAT
    }
  }
  attr {
    key: "_class"
    value {
      list {
        s: "loc:@MobilenetV2/expanded_conv_2/expand/BatchNorm/gamma"
      }
    }
  }
  attr {
    key: "use_locking"
    value {
      b: true
    }
  }
  attr {
    key: "validate_shape"
    value {
      b: true
    }
  }
}
node {
  name: "MobilenetV2/expanded_conv_2/expand/BatchNorm/gamma/read"
  op: "Identity"
  input: "MobilenetV2/expanded_conv_2/expand/BatchNorm/gamma"
  attr {
    key: "T"
    value {
      type: DT_FLOAT
    }
  }
  attr {
    key: "_class"
    value {
      list {
        s: "loc:@MobilenetV2/expanded_conv_2/expand/BatchNorm/gamma"
      }
    }
  }
}
node {
  name: "MobilenetV2/expanded_conv_2/expand/BatchNorm/beta/Initializer/zeros"
  op: "Const"
  attr {
    key: "_class"
    value {
      list {
        s: "loc:@MobilenetV2/expanded_conv_2/expand/BatchNorm/beta"
      }
    }
  }
  attr {
    key: "dtype"
    value {
      type: DT_FLOAT
    }
  }
  attr {
    key: "value"
    value {
      tensor {
        dtype: DT_FLOAT
        tensor_shape {
          dim {
            size: 96
          }
        }
        float_val: 0.0
      }
    }
  }
}
node {
  name: "MobilenetV2/expanded_conv_2/expand/BatchNorm/beta"
  op: "VariableV2"
  attr {
    key: "_class"
    value {
      list {
        s: "loc:@MobilenetV2/expanded_conv_2/expand/BatchNorm/beta"
      }
    }
  }
  attr {
    key: "container"
    value {
      s: ""
    }
  }
  attr {
    key: "dtype"
    value {
      type: DT_FLOAT
    }
  }
  attr {
    key: "shape"
    value {
      shape {
        dim {
          size: 96
        }
      }
    }
  }
  attr {
    key: "shared_name"
    value {
      s: ""
    }
  }
}
node {
  name: "MobilenetV2/expanded_conv_2/expand/BatchNorm/beta/Assign"
  op: "Assign"
  input: "MobilenetV2/expanded_conv_2/expand/BatchNorm/beta"
  input: "MobilenetV2/expanded_conv_2/expand/BatchNorm/beta/Initializer/zeros"
  attr {
    key: "T"
    value {
      type: DT_FLOAT
    }
  }
  attr {
    key: "_class"
    value {
      list {
        s: "loc:@MobilenetV2/expanded_conv_2/expand/BatchNorm/beta"
      }
    }
  }
  attr {
    key: "use_locking"
    value {
      b: true
    }
  }
  attr {
    key: "validate_shape"
    value {
      b: true
    }
  }
}
node {
  name: "MobilenetV2/expanded_conv_2/expand/BatchNorm/beta/read"
  op: "Identity"
  input: "MobilenetV2/expanded_conv_2/expand/BatchNorm/beta"
  attr {
    key: "T"
    value {
      type: DT_FLOAT
    }
  }
  attr {
    key: "_class"
    value {
      list {
        s: "loc:@MobilenetV2/expanded_conv_2/expand/BatchNorm/beta"
      }
    }
  }
}
node {
  name: "MobilenetV2/expanded_conv_2/expand/BatchNorm/moving_mean/Initializer/zeros"
  op: "Const"
  attr {
    key: "_class"
    value {
      list {
        s: "loc:@MobilenetV2/expanded_conv_2/expand/BatchNorm/moving_mean"
      }
    }
  }
  attr {
    key: "dtype"
    value {
      type: DT_FLOAT
    }
  }
  attr {
    key: "value"
    value {
      tensor {
        dtype: DT_FLOAT
        tensor_shape {
          dim {
            size: 96
          }
        }
        float_val: 0.0
      }
    }
  }
}
node {
  name: "MobilenetV2/expanded_conv_2/expand/BatchNorm/moving_mean"
  op: "VariableV2"
  attr {
    key: "_class"
    value {
      list {
        s: "loc:@MobilenetV2/expanded_conv_2/expand/BatchNorm/moving_mean"
      }
    }
  }
  attr {
    key: "container"
    value {
      s: ""
    }
  }
  attr {
    key: "dtype"
    value {
      type: DT_FLOAT
    }
  }
  attr {
    key: "shape"
    value {
      shape {
        dim {
          size: 96
        }
      }
    }
  }
  attr {
    key: "shared_name"
    value {
      s: ""
    }
  }
}
node {
  name: "MobilenetV2/expanded_conv_2/expand/BatchNorm/moving_mean/Assign"
  op: "Assign"
  input: "MobilenetV2/expanded_conv_2/expand/BatchNorm/moving_mean"
  input: "MobilenetV2/expanded_conv_2/expand/BatchNorm/moving_mean/Initializer/zeros"
  attr {
    key: "T"
    value {
      type: DT_FLOAT
    }
  }
  attr {
    key: "_class"
    value {
      list {
        s: "loc:@MobilenetV2/expanded_conv_2/expand/BatchNorm/moving_mean"
      }
    }
  }
  attr {
    key: "use_locking"
    value {
      b: true
    }
  }
  attr {
    key: "validate_shape"
    value {
      b: true
    }
  }
}
node {
  name: "MobilenetV2/expanded_conv_2/expand/BatchNorm/moving_mean/read"
  op: "Identity"
  input: "MobilenetV2/expanded_conv_2/expand/BatchNorm/moving_mean"
  attr {
    key: "T"
    value {
      type: DT_FLOAT
    }
  }
  attr {
    key: "_class"
    value {
      list {
        s: "loc:@MobilenetV2/expanded_conv_2/expand/BatchNorm/moving_mean"
      }
    }
  }
}
node {
  name: "MobilenetV2/expanded_conv_2/expand/BatchNorm/moving_variance/Initializer/ones"
  op: "Const"
  attr {
    key: "_class"
    value {
      list {
        s: "loc:@MobilenetV2/expanded_conv_2/expand/BatchNorm/moving_variance"
      }
    }
  }
  attr {
    key: "dtype"
    value {
      type: DT_FLOAT
    }
  }
  attr {
    key: "value"
    value {
      tensor {
        dtype: DT_FLOAT
        tensor_shape {
          dim {
            size: 96
          }
        }
        float_val: 1.0
      }
    }
  }
}
node {
  name: "MobilenetV2/expanded_conv_2/expand/BatchNorm/moving_variance"
  op: "VariableV2"
  attr {
    key: "_class"
    value {
      list {
        s: "loc:@MobilenetV2/expanded_conv_2/expand/BatchNorm/moving_variance"
      }
    }
  }
  attr {
    key: "container"
    value {
      s: ""
    }
  }
  attr {
    key: "dtype"
    value {
      type: DT_FLOAT
    }
  }
  attr {
    key: "shape"
    value {
      shape {
        dim {
          size: 96
        }
      }
    }
  }
  attr {
    key: "shared_name"
    value {
      s: ""
    }
  }
}
node {
  name: "MobilenetV2/expanded_conv_2/expand/BatchNorm/moving_variance/Assign"
  op: "Assign"
  input: "MobilenetV2/expanded_conv_2/expand/BatchNorm/moving_variance"
  input: "MobilenetV2/expanded_conv_2/expand/BatchNorm/moving_variance/Initializer/ones"
  attr {
    key: "T"
    value {
      type: DT_FLOAT
    }
  }
  attr {
    key: "_class"
    value {
      list {
        s: "loc:@MobilenetV2/expanded_conv_2/expand/BatchNorm/moving_variance"
      }
    }
  }
  attr {
    key: "use_locking"
    value {
      b: true
    }
  }
  attr {
    key: "validate_shape"
    value {
      b: true
    }
  }
}
node {
  name: "MobilenetV2/expanded_conv_2/expand/BatchNorm/moving_variance/read"
  op: "Identity"
  input: "MobilenetV2/expanded_conv_2/expand/BatchNorm/moving_variance"
  attr {
    key: "T"
    value {
      type: DT_FLOAT
    }
  }
  attr {
    key: "_class"
    value {
      list {
        s: "loc:@MobilenetV2/expanded_conv_2/expand/BatchNorm/moving_variance"
      }
    }
  }
}
node {
  name: "MobilenetV2/expanded_conv_2/expand/BatchNorm/FusedBatchNormV3"
  op: "FusedBatchNormV3"
  input: "MobilenetV2/expanded_conv_2/expand/Conv2D"
  input: "MobilenetV2/expanded_conv_2/expand/BatchNorm/gamma/read"
  input: "MobilenetV2/expanded_conv_2/expand/BatchNorm/beta/read"
  input: "MobilenetV2/expanded_conv_2/expand/BatchNorm/moving_mean/read"
  input: "MobilenetV2/expanded_conv_2/expand/BatchNorm/moving_variance/read"
  attr {
    key: "T"
    value {
      type: DT_FLOAT
    }
  }
  attr {
    key: "U"
    value {
      type: DT_FLOAT
    }
  }
  attr {
    key: "data_format"
    value {
      s: "NHWC"
    }
  }
  attr {
    key: "epsilon"
    value {
      f: 0.0010000000474974513
    }
  }
  attr {
    key: "is_training"
    value {
      b: false
    }
  }
}
node {
  name: "MobilenetV2/expanded_conv_2/expand/BatchNorm/Const"
  op: "Const"
  attr {
    key: "dtype"
    value {
      type: DT_FLOAT
    }
  }
  attr {
    key: "value"
    value {
      tensor {
        dtype: DT_FLOAT
        tensor_shape {
        }
        float_val: 0.996999979019165
      }
    }
  }
}
node {
  name: "MobilenetV2/expanded_conv_2/expand/Relu6"
  op: "Relu6"
  input: "MobilenetV2/expanded_conv_2/expand/BatchNorm/FusedBatchNormV3"
  attr {
    key: "T"
    value {
      type: DT_FLOAT
    }
  }
}
node {
  name: "MobilenetV2/expanded_conv_2/expansion_output"
  op: "Identity"
  input: "MobilenetV2/expanded_conv_2/expand/Relu6"
  attr {
    key: "T"
    value {
      type: DT_FLOAT
    }
  }
}
node {
  name: "MobilenetV2/expanded_conv_2/depthwise/depthwise_weights/Initializer/truncated_normal/shape"
  op: "Const"
  attr {
    key: "_class"
    value {
      list {
        s: "loc:@MobilenetV2/expanded_conv_2/depthwise/depthwise_weights"
      }
    }
  }
  attr {
    key: "dtype"
    value {
      type: DT_INT32
    }
  }
  attr {
    key: "value"
    value {
      tensor {
        dtype: DT_INT32
        tensor_shape {
          dim {
            size: 4
          }
        }
        tensor_content: "\003\000\000\000\003\000\000\000`\000\000\000\001\000\000\000"
      }
    }
  }
}
node {
  name: "MobilenetV2/expanded_conv_2/depthwise/depthwise_weights/Initializer/truncated_normal/mean"
  op: "Const"
  attr {
    key: "_class"
    value {
      list {
        s: "loc:@MobilenetV2/expanded_conv_2/depthwise/depthwise_weights"
      }
    }
  }
  attr {
    key: "dtype"
    value {
      type: DT_FLOAT
    }
  }
  attr {
    key: "value"
    value {
      tensor {
        dtype: DT_FLOAT
        tensor_shape {
        }
        float_val: 0.0
      }
    }
  }
}
node {
  name: "MobilenetV2/expanded_conv_2/depthwise/depthwise_weights/Initializer/truncated_normal/stddev"
  op: "Const"
  attr {
    key: "_class"
    value {
      list {
        s: "loc:@MobilenetV2/expanded_conv_2/depthwise/depthwise_weights"
      }
    }
  }
  attr {
    key: "dtype"
    value {
      type: DT_FLOAT
    }
  }
  attr {
    key: "value"
    value {
      tensor {
        dtype: DT_FLOAT
        tensor_shape {
        }
        float_val: 0.09000000357627869
      }
    }
  }
}
node {
  name: "MobilenetV2/expanded_conv_2/depthwise/depthwise_weights/Initializer/truncated_normal/TruncatedNormal"
  op: "TruncatedNormal"
  input: "MobilenetV2/expanded_conv_2/depthwise/depthwise_weights/Initializer/truncated_normal/shape"
  attr {
    key: "T"
    value {
      type: DT_INT32
    }
  }
  attr {
    key: "_class"
    value {
      list {
        s: "loc:@MobilenetV2/expanded_conv_2/depthwise/depthwise_weights"
      }
    }
  }
  attr {
    key: "dtype"
    value {
      type: DT_FLOAT
    }
  }
  attr {
    key: "seed"
    value {
      i: 0
    }
  }
  attr {
    key: "seed2"
    value {
      i: 0
    }
  }
}
node {
  name: "MobilenetV2/expanded_conv_2/depthwise/depthwise_weights/Initializer/truncated_normal/mul"
  op: "Mul"
  input: "MobilenetV2/expanded_conv_2/depthwise/depthwise_weights/Initializer/truncated_normal/TruncatedNormal"
  input: "MobilenetV2/expanded_conv_2/depthwise/depthwise_weights/Initializer/truncated_normal/stddev"
  attr {
    key: "T"
    value {
      type: DT_FLOAT
    }
  }
  attr {
    key: "_class"
    value {
      list {
        s: "loc:@MobilenetV2/expanded_conv_2/depthwise/depthwise_weights"
      }
    }
  }
}
node {
  name: "MobilenetV2/expanded_conv_2/depthwise/depthwise_weights/Initializer/truncated_normal"
  op: "Add"
  input: "MobilenetV2/expanded_conv_2/depthwise/depthwise_weights/Initializer/truncated_normal/mul"
  input: "MobilenetV2/expanded_conv_2/depthwise/depthwise_weights/Initializer/truncated_normal/mean"
  attr {
    key: "T"
    value {
      type: DT_FLOAT
    }
  }
  attr {
    key: "_class"
    value {
      list {
        s: "loc:@MobilenetV2/expanded_conv_2/depthwise/depthwise_weights"
      }
    }
  }
}
node {
  name: "MobilenetV2/expanded_conv_2/depthwise/depthwise_weights"
  op: "VariableV2"
  attr {
    key: "_class"
    value {
      list {
        s: "loc:@MobilenetV2/expanded_conv_2/depthwise/depthwise_weights"
      }
    }
  }
  attr {
    key: "container"
    value {
      s: ""
    }
  }
  attr {
    key: "dtype"
    value {
      type: DT_FLOAT
    }
  }
  attr {
    key: "shape"
    value {
      shape {
        dim {
          size: 3
        }
        dim {
          size: 3
        }
        dim {
          size: 96
        }
        dim {
          size: 1
        }
      }
    }
  }
  attr {
    key: "shared_name"
    value {
      s: ""
    }
  }
}
node {
  name: "MobilenetV2/expanded_conv_2/depthwise/depthwise_weights/Assign"
  op: "Assign"
  input: "MobilenetV2/expanded_conv_2/depthwise/depthwise_weights"
  input: "MobilenetV2/expanded_conv_2/depthwise/depthwise_weights/Initializer/truncated_normal"
  attr {
    key: "T"
    value {
      type: DT_FLOAT
    }
  }
  attr {
    key: "_class"
    value {
      list {
        s: "loc:@MobilenetV2/expanded_conv_2/depthwise/depthwise_weights"
      }
    }
  }
  attr {
    key: "use_locking"
    value {
      b: true
    }
  }
  attr {
    key: "validate_shape"
    value {
      b: true
    }
  }
}
node {
  name: "MobilenetV2/expanded_conv_2/depthwise/depthwise_weights/read"
  op: "Identity"
  input: "MobilenetV2/expanded_conv_2/depthwise/depthwise_weights"
  attr {
    key: "T"
    value {
      type: DT_FLOAT
    }
  }
  attr {
    key: "_class"
    value {
      list {
        s: "loc:@MobilenetV2/expanded_conv_2/depthwise/depthwise_weights"
      }
    }
  }
}
node {
  name: "MobilenetV2/expanded_conv_2/depthwise/depthwise/Shape"
  op: "Const"
  attr {
    key: "dtype"
    value {
      type: DT_INT32
    }
  }
  attr {
    key: "value"
    value {
      tensor {
        dtype: DT_INT32
        tensor_shape {
          dim {
            size: 4
          }
        }
        tensor_content: "\003\000\000\000\003\000\000\000`\000\000\000\001\000\000\000"
      }
    }
  }
}
node {
  name: "MobilenetV2/expanded_conv_2/depthwise/depthwise/dilation_rate"
  op: "Const"
  attr {
    key: "dtype"
    value {
      type: DT_INT32
    }
  }
  attr {
    key: "value"
    value {
      tensor {
        dtype: DT_INT32
        tensor_shape {
          dim {
            size: 2
          }
        }
        tensor_content: "\001\000\000\000\001\000\000\000"
      }
    }
  }
}
node {
  name: "MobilenetV2/expanded_conv_2/depthwise/depthwise"
  op: "DepthwiseConv2dNative"
  input: "MobilenetV2/expanded_conv_2/expansion_output"
  input: "MobilenetV2/expanded_conv_2/depthwise/depthwise_weights/read"
  attr {
    key: "T"
    value {
      type: DT_FLOAT
    }
  }
  attr {
    key: "data_format"
    value {
      s: "NHWC"
    }
  }
  attr {
    key: "dilations"
    value {
      list {
        i: 1
        i: 1
        i: 1
        i: 1
      }
    }
  }
  attr {
    key: "padding"
    value {
      s: "SAME"
    }
  }
  attr {
    key: "strides"
    value {
      list {
        i: 1
        i: 1
        i: 1
        i: 1
      }
    }
  }
}
node {
  name: "MobilenetV2/expanded_conv_2/depthwise/BatchNorm/gamma/Initializer/ones"
  op: "Const"
  attr {
    key: "_class"
    value {
      list {
        s: "loc:@MobilenetV2/expanded_conv_2/depthwise/BatchNorm/gamma"
      }
    }
  }
  attr {
    key: "dtype"
    value {
      type: DT_FLOAT
    }
  }
  attr {
    key: "value"
    value {
      tensor {
        dtype: DT_FLOAT
        tensor_shape {
          dim {
            size: 96
          }
        }
        float_val: 1.0
      }
    }
  }
}
node {
  name: "MobilenetV2/expanded_conv_2/depthwise/BatchNorm/gamma"
  op: "VariableV2"
  attr {
    key: "_class"
    value {
      list {
        s: "loc:@MobilenetV2/expanded_conv_2/depthwise/BatchNorm/gamma"
      }
    }
  }
  attr {
    key: "container"
    value {
      s: ""
    }
  }
  attr {
    key: "dtype"
    value {
      type: DT_FLOAT
    }
  }
  attr {
    key: "shape"
    value {
      shape {
        dim {
          size: 96
        }
      }
    }
  }
  attr {
    key: "shared_name"
    value {
      s: ""
    }
  }
}
node {
  name: "MobilenetV2/expanded_conv_2/depthwise/BatchNorm/gamma/Assign"
  op: "Assign"
  input: "MobilenetV2/expanded_conv_2/depthwise/BatchNorm/gamma"
  input: "MobilenetV2/expanded_conv_2/depthwise/BatchNorm/gamma/Initializer/ones"
  attr {
    key: "T"
    value {
      type: DT_FLOAT
    }
  }
  attr {
    key: "_class"
    value {
      list {
        s: "loc:@MobilenetV2/expanded_conv_2/depthwise/BatchNorm/gamma"
      }
    }
  }
  attr {
    key: "use_locking"
    value {
      b: true
    }
  }
  attr {
    key: "validate_shape"
    value {
      b: true
    }
  }
}
node {
  name: "MobilenetV2/expanded_conv_2/depthwise/BatchNorm/gamma/read"
  op: "Identity"
  input: "MobilenetV2/expanded_conv_2/depthwise/BatchNorm/gamma"
  attr {
    key: "T"
    value {
      type: DT_FLOAT
    }
  }
  attr {
    key: "_class"
    value {
      list {
        s: "loc:@MobilenetV2/expanded_conv_2/depthwise/BatchNorm/gamma"
      }
    }
  }
}
node {
  name: "MobilenetV2/expanded_conv_2/depthwise/BatchNorm/beta/Initializer/zeros"
  op: "Const"
  attr {
    key: "_class"
    value {
      list {
        s: "loc:@MobilenetV2/expanded_conv_2/depthwise/BatchNorm/beta"
      }
    }
  }
  attr {
    key: "dtype"
    value {
      type: DT_FLOAT
    }
  }
  attr {
    key: "value"
    value {
      tensor {
        dtype: DT_FLOAT
        tensor_shape {
          dim {
            size: 96
          }
        }
        float_val: 0.0
      }
    }
  }
}
node {
  name: "MobilenetV2/expanded_conv_2/depthwise/BatchNorm/beta"
  op: "VariableV2"
  attr {
    key: "_class"
    value {
      list {
        s: "loc:@MobilenetV2/expanded_conv_2/depthwise/BatchNorm/beta"
      }
    }
  }
  attr {
    key: "container"
    value {
      s: ""
    }
  }
  attr {
    key: "dtype"
    value {
      type: DT_FLOAT
    }
  }
  attr {
    key: "shape"
    value {
      shape {
        dim {
          size: 96
        }
      }
    }
  }
  attr {
    key: "shared_name"
    value {
      s: ""
    }
  }
}
node {
  name: "MobilenetV2/expanded_conv_2/depthwise/BatchNorm/beta/Assign"
  op: "Assign"
  input: "MobilenetV2/expanded_conv_2/depthwise/BatchNorm/beta"
  input: "MobilenetV2/expanded_conv_2/depthwise/BatchNorm/beta/Initializer/zeros"
  attr {
    key: "T"
    value {
      type: DT_FLOAT
    }
  }
  attr {
    key: "_class"
    value {
      list {
        s: "loc:@MobilenetV2/expanded_conv_2/depthwise/BatchNorm/beta"
      }
    }
  }
  attr {
    key: "use_locking"
    value {
      b: true
    }
  }
  attr {
    key: "validate_shape"
    value {
      b: true
    }
  }
}
node {
  name: "MobilenetV2/expanded_conv_2/depthwise/BatchNorm/beta/read"
  op: "Identity"
  input: "MobilenetV2/expanded_conv_2/depthwise/BatchNorm/beta"
  attr {
    key: "T"
    value {
      type: DT_FLOAT
    }
  }
  attr {
    key: "_class"
    value {
      list {
        s: "loc:@MobilenetV2/expanded_conv_2/depthwise/BatchNorm/beta"
      }
    }
  }
}
node {
  name: "MobilenetV2/expanded_conv_2/depthwise/BatchNorm/moving_mean/Initializer/zeros"
  op: "Const"
  attr {
    key: "_class"
    value {
      list {
        s: "loc:@MobilenetV2/expanded_conv_2/depthwise/BatchNorm/moving_mean"
      }
    }
  }
  attr {
    key: "dtype"
    value {
      type: DT_FLOAT
    }
  }
  attr {
    key: "value"
    value {
      tensor {
        dtype: DT_FLOAT
        tensor_shape {
          dim {
            size: 96
          }
        }
        float_val: 0.0
      }
    }
  }
}
node {
  name: "MobilenetV2/expanded_conv_2/depthwise/BatchNorm/moving_mean"
  op: "VariableV2"
  attr {
    key: "_class"
    value {
      list {
        s: "loc:@MobilenetV2/expanded_conv_2/depthwise/BatchNorm/moving_mean"
      }
    }
  }
  attr {
    key: "container"
    value {
      s: ""
    }
  }
  attr {
    key: "dtype"
    value {
      type: DT_FLOAT
    }
  }
  attr {
    key: "shape"
    value {
      shape {
        dim {
          size: 96
        }
      }
    }
  }
  attr {
    key: "shared_name"
    value {
      s: ""
    }
  }
}
node {
  name: "MobilenetV2/expanded_conv_2/depthwise/BatchNorm/moving_mean/Assign"
  op: "Assign"
  input: "MobilenetV2/expanded_conv_2/depthwise/BatchNorm/moving_mean"
  input: "MobilenetV2/expanded_conv_2/depthwise/BatchNorm/moving_mean/Initializer/zeros"
  attr {
    key: "T"
    value {
      type: DT_FLOAT
    }
  }
  attr {
    key: "_class"
    value {
      list {
        s: "loc:@MobilenetV2/expanded_conv_2/depthwise/BatchNorm/moving_mean"
      }
    }
  }
  attr {
    key: "use_locking"
    value {
      b: true
    }
  }
  attr {
    key: "validate_shape"
    value {
      b: true
    }
  }
}
node {
  name: "MobilenetV2/expanded_conv_2/depthwise/BatchNorm/moving_mean/read"
  op: "Identity"
  input: "MobilenetV2/expanded_conv_2/depthwise/BatchNorm/moving_mean"
  attr {
    key: "T"
    value {
      type: DT_FLOAT
    }
  }
  attr {
    key: "_class"
    value {
      list {
        s: "loc:@MobilenetV2/expanded_conv_2/depthwise/BatchNorm/moving_mean"
      }
    }
  }
}
node {
  name: "MobilenetV2/expanded_conv_2/depthwise/BatchNorm/moving_variance/Initializer/ones"
  op: "Const"
  attr {
    key: "_class"
    value {
      list {
        s: "loc:@MobilenetV2/expanded_conv_2/depthwise/BatchNorm/moving_variance"
      }
    }
  }
  attr {
    key: "dtype"
    value {
      type: DT_FLOAT
    }
  }
  attr {
    key: "value"
    value {
      tensor {
        dtype: DT_FLOAT
        tensor_shape {
          dim {
            size: 96
          }
        }
        float_val: 1.0
      }
    }
  }
}
node {
  name: "MobilenetV2/expanded_conv_2/depthwise/BatchNorm/moving_variance"
  op: "VariableV2"
  attr {
    key: "_class"
    value {
      list {
        s: "loc:@MobilenetV2/expanded_conv_2/depthwise/BatchNorm/moving_variance"
      }
    }
  }
  attr {
    key: "container"
    value {
      s: ""
    }
  }
  attr {
    key: "dtype"
    value {
      type: DT_FLOAT
    }
  }
  attr {
    key: "shape"
    value {
      shape {
        dim {
          size: 96
        }
      }
    }
  }
  attr {
    key: "shared_name"
    value {
      s: ""
    }
  }
}
node {
  name: "MobilenetV2/expanded_conv_2/depthwise/BatchNorm/moving_variance/Assign"
  op: "Assign"
  input: "MobilenetV2/expanded_conv_2/depthwise/BatchNorm/moving_variance"
  input: "MobilenetV2/expanded_conv_2/depthwise/BatchNorm/moving_variance/Initializer/ones"
  attr {
    key: "T"
    value {
      type: DT_FLOAT
    }
  }
  attr {
    key: "_class"
    value {
      list {
        s: "loc:@MobilenetV2/expanded_conv_2/depthwise/BatchNorm/moving_variance"
      }
    }
  }
  attr {
    key: "use_locking"
    value {
      b: true
    }
  }
  attr {
    key: "validate_shape"
    value {
      b: true
    }
  }
}
node {
  name: "MobilenetV2/expanded_conv_2/depthwise/BatchNorm/moving_variance/read"
  op: "Identity"
  input: "MobilenetV2/expanded_conv_2/depthwise/BatchNorm/moving_variance"
  attr {
    key: "T"
    value {
      type: DT_FLOAT
    }
  }
  attr {
    key: "_class"
    value {
      list {
        s: "loc:@MobilenetV2/expanded_conv_2/depthwise/BatchNorm/moving_variance"
      }
    }
  }
}
node {
  name: "MobilenetV2/expanded_conv_2/depthwise/BatchNorm/FusedBatchNormV3"
  op: "FusedBatchNormV3"
  input: "MobilenetV2/expanded_conv_2/depthwise/depthwise"
  input: "MobilenetV2/expanded_conv_2/depthwise/BatchNorm/gamma/read"
  input: "MobilenetV2/expanded_conv_2/depthwise/BatchNorm/beta/read"
  input: "MobilenetV2/expanded_conv_2/depthwise/BatchNorm/moving_mean/read"
  input: "MobilenetV2/expanded_conv_2/depthwise/BatchNorm/moving_variance/read"
  attr {
    key: "T"
    value {
      type: DT_FLOAT
    }
  }
  attr {
    key: "U"
    value {
      type: DT_FLOAT
    }
  }
  attr {
    key: "data_format"
    value {
      s: "NHWC"
    }
  }
  attr {
    key: "epsilon"
    value {
      f: 0.0010000000474974513
    }
  }
  attr {
    key: "is_training"
    value {
      b: false
    }
  }
}
node {
  name: "MobilenetV2/expanded_conv_2/depthwise/BatchNorm/Const"
  op: "Const"
  attr {
    key: "dtype"
    value {
      type: DT_FLOAT
    }
  }
  attr {
    key: "value"
    value {
      tensor {
        dtype: DT_FLOAT
        tensor_shape {
        }
        float_val: 0.996999979019165
      }
    }
  }
}
node {
  name: "MobilenetV2/expanded_conv_2/depthwise/Relu6"
  op: "Relu6"
  input: "MobilenetV2/expanded_conv_2/depthwise/BatchNorm/FusedBatchNormV3"
  attr {
    key: "T"
    value {
      type: DT_FLOAT
    }
  }
}
node {
  name: "MobilenetV2/expanded_conv_2/depthwise_output"
  op: "Identity"
  input: "MobilenetV2/expanded_conv_2/depthwise/Relu6"
  attr {
    key: "T"
    value {
      type: DT_FLOAT
    }
  }
}
node {
  name: "MobilenetV2/expanded_conv_2/project/weights/Initializer/truncated_normal/shape"
  op: "Const"
  attr {
    key: "_class"
    value {
      list {
        s: "loc:@MobilenetV2/expanded_conv_2/project/weights"
      }
    }
  }
  attr {
    key: "dtype"
    value {
      type: DT_INT32
    }
  }
  attr {
    key: "value"
    value {
      tensor {
        dtype: DT_INT32
        tensor_shape {
          dim {
            size: 4
          }
        }
        tensor_content: "\001\000\000\000\001\000\000\000`\000\000\000\020\000\000\000"
      }
    }
  }
}
node {
  name: "MobilenetV2/expanded_conv_2/project/weights/Initializer/truncated_normal/mean"
  op: "Const"
  attr {
    key: "_class"
    value {
      list {
        s: "loc:@MobilenetV2/expanded_conv_2/project/weights"
      }
    }
  }
  attr {
    key: "dtype"
    value {
      type: DT_FLOAT
    }
  }
  attr {
    key: "value"
    value {
      tensor {
        dtype: DT_FLOAT
        tensor_shape {
        }
        float_val: 0.0
      }
    }
  }
}
node {
  name: "MobilenetV2/expanded_conv_2/project/weights/Initializer/truncated_normal/stddev"
  op: "Const"
  attr {
    key: "_class"
    value {
      list {
        s: "loc:@MobilenetV2/expanded_conv_2/project/weights"
      }
    }
  }
  attr {
    key: "dtype"
    value {
      type: DT_FLOAT
    }
  }
  attr {
    key: "value"
    value {
      tensor {
        dtype: DT_FLOAT
        tensor_shape {
        }
        float_val: 0.09000000357627869
      }
    }
  }
}
node {
  name: "MobilenetV2/expanded_conv_2/project/weights/Initializer/truncated_normal/TruncatedNormal"
  op: "TruncatedNormal"
  input: "MobilenetV2/expanded_conv_2/project/weights/Initializer/truncated_normal/shape"
  attr {
    key: "T"
    value {
      type: DT_INT32
    }
  }
  attr {
    key: "_class"
    value {
      list {
        s: "loc:@MobilenetV2/expanded_conv_2/project/weights"
      }
    }
  }
  attr {
    key: "dtype"
    value {
      type: DT_FLOAT
    }
  }
  attr {
    key: "seed"
    value {
      i: 0
    }
  }
  attr {
    key: "seed2"
    value {
      i: 0
    }
  }
}
node {
  name: "MobilenetV2/expanded_conv_2/project/weights/Initializer/truncated_normal/mul"
  op: "Mul"
  input: "MobilenetV2/expanded_conv_2/project/weights/Initializer/truncated_normal/TruncatedNormal"
  input: "MobilenetV2/expanded_conv_2/project/weights/Initializer/truncated_normal/stddev"
  attr {
    key: "T"
    value {
      type: DT_FLOAT
    }
  }
  attr {
    key: "_class"
    value {
      list {
        s: "loc:@MobilenetV2/expanded_conv_2/project/weights"
      }
    }
  }
}
node {
  name: "MobilenetV2/expanded_conv_2/project/weights/Initializer/truncated_normal"
  op: "Add"
  input: "MobilenetV2/expanded_conv_2/project/weights/Initializer/truncated_normal/mul"
  input: "MobilenetV2/expanded_conv_2/project/weights/Initializer/truncated_normal/mean"
  attr {
    key: "T"
    value {
      type: DT_FLOAT
    }
  }
  attr {
    key: "_class"
    value {
      list {
        s: "loc:@MobilenetV2/expanded_conv_2/project/weights"
      }
    }
  }
}
node {
  name: "MobilenetV2/expanded_conv_2/project/weights"
  op: "VariableV2"
  attr {
    key: "_class"
    value {
      list {
        s: "loc:@MobilenetV2/expanded_conv_2/project/weights"
      }
    }
  }
  attr {
    key: "container"
    value {
      s: ""
    }
  }
  attr {
    key: "dtype"
    value {
      type: DT_FLOAT
    }
  }
  attr {
    key: "shape"
    value {
      shape {
        dim {
          size: 1
        }
        dim {
          size: 1
        }
        dim {
          size: 96
        }
        dim {
          size: 16
        }
      }
    }
  }
  attr {
    key: "shared_name"
    value {
      s: ""
    }
  }
}
node {
  name: "MobilenetV2/expanded_conv_2/project/weights/Assign"
  op: "Assign"
  input: "MobilenetV2/expanded_conv_2/project/weights"
  input: "MobilenetV2/expanded_conv_2/project/weights/Initializer/truncated_normal"
  attr {
    key: "T"
    value {
      type: DT_FLOAT
    }
  }
  attr {
    key: "_class"
    value {
      list {
        s: "loc:@MobilenetV2/expanded_conv_2/project/weights"
      }
    }
  }
  attr {
    key: "use_locking"
    value {
      b: true
    }
  }
  attr {
    key: "validate_shape"
    value {
      b: true
    }
  }
}
node {
  name: "MobilenetV2/expanded_conv_2/project/weights/read"
  op: "Identity"
  input: "MobilenetV2/expanded_conv_2/project/weights"
  attr {
    key: "T"
    value {
      type: DT_FLOAT
    }
  }
  attr {
    key: "_class"
    value {
      list {
        s: "loc:@MobilenetV2/expanded_conv_2/project/weights"
      }
    }
  }
}
node {
  name: "MobilenetV2/expanded_conv_2/project/kernel/Regularizer/l2_regularizer/scale"
  op: "Const"
  attr {
    key: "dtype"
    value {
      type: DT_FLOAT
    }
  }
  attr {
    key: "value"
    value {
      tensor {
        dtype: DT_FLOAT
        tensor_shape {
        }
        float_val: 3.9999998989515007e-05
      }
    }
  }
}
node {
  name: "MobilenetV2/expanded_conv_2/project/kernel/Regularizer/l2_regularizer/L2Loss"
  op: "L2Loss"
  input: "MobilenetV2/expanded_conv_2/project/weights/read"
  attr {
    key: "T"
    value {
      type: DT_FLOAT
    }
  }
}
node {
  name: "MobilenetV2/expanded_conv_2/project/kernel/Regularizer/l2_regularizer"
  op: "Mul"
  input: "MobilenetV2/expanded_conv_2/project/kernel/Regularizer/l2_regularizer/scale"
  input: "MobilenetV2/expanded_conv_2/project/kernel/Regularizer/l2_regularizer/L2Loss"
  attr {
    key: "T"
    value {
      type: DT_FLOAT
    }
  }
}
node {
  name: "MobilenetV2/expanded_conv_2/project/dilation_rate"
  op: "Const"
  attr {
    key: "dtype"
    value {
      type: DT_INT32
    }
  }
  attr {
    key: "value"
    value {
      tensor {
        dtype: DT_INT32
        tensor_shape {
          dim {
            size: 2
          }
        }
        tensor_content: "\001\000\000\000\001\000\000\000"
      }
    }
  }
}
node {
  name: "MobilenetV2/expanded_conv_2/project/Conv2D"
  op: "Conv2D"
  input: "MobilenetV2/expanded_conv_2/depthwise_output"
  input: "MobilenetV2/expanded_conv_2/project/weights/read"
  attr {
    key: "T"
    value {
      type: DT_FLOAT
    }
  }
  attr {
    key: "data_format"
    value {
      s: "NHWC"
    }
  }
  attr {
    key: "dilations"
    value {
      list {
        i: 1
        i: 1
        i: 1
        i: 1
      }
    }
  }
  attr {
    key: "explicit_paddings"
    value {
      list {
      }
    }
  }
  attr {
    key: "padding"
    value {
      s: "SAME"
    }
  }
  attr {
    key: "strides"
    value {
      list {
        i: 1
        i: 1
        i: 1
        i: 1
      }
    }
  }
  attr {
    key: "use_cudnn_on_gpu"
    value {
      b: true
    }
  }
}
node {
  name: "MobilenetV2/expanded_conv_2/project/BatchNorm/gamma/Initializer/ones"
  op: "Const"
  attr {
    key: "_class"
    value {
      list {
        s: "loc:@MobilenetV2/expanded_conv_2/project/BatchNorm/gamma"
      }
    }
  }
  attr {
    key: "dtype"
    value {
      type: DT_FLOAT
    }
  }
  attr {
    key: "value"
    value {
      tensor {
        dtype: DT_FLOAT
        tensor_shape {
          dim {
            size: 16
          }
        }
        float_val: 1.0
      }
    }
  }
}
node {
  name: "MobilenetV2/expanded_conv_2/project/BatchNorm/gamma"
  op: "VariableV2"
  attr {
    key: "_class"
    value {
      list {
        s: "loc:@MobilenetV2/expanded_conv_2/project/BatchNorm/gamma"
      }
    }
  }
  attr {
    key: "container"
    value {
      s: ""
    }
  }
  attr {
    key: "dtype"
    value {
      type: DT_FLOAT
    }
  }
  attr {
    key: "shape"
    value {
      shape {
        dim {
          size: 16
        }
      }
    }
  }
  attr {
    key: "shared_name"
    value {
      s: ""
    }
  }
}
node {
  name: "MobilenetV2/expanded_conv_2/project/BatchNorm/gamma/Assign"
  op: "Assign"
  input: "MobilenetV2/expanded_conv_2/project/BatchNorm/gamma"
  input: "MobilenetV2/expanded_conv_2/project/BatchNorm/gamma/Initializer/ones"
  attr {
    key: "T"
    value {
      type: DT_FLOAT
    }
  }
  attr {
    key: "_class"
    value {
      list {
        s: "loc:@MobilenetV2/expanded_conv_2/project/BatchNorm/gamma"
      }
    }
  }
  attr {
    key: "use_locking"
    value {
      b: true
    }
  }
  attr {
    key: "validate_shape"
    value {
      b: true
    }
  }
}
node {
  name: "MobilenetV2/expanded_conv_2/project/BatchNorm/gamma/read"
  op: "Identity"
  input: "MobilenetV2/expanded_conv_2/project/BatchNorm/gamma"
  attr {
    key: "T"
    value {
      type: DT_FLOAT
    }
  }
  attr {
    key: "_class"
    value {
      list {
        s: "loc:@MobilenetV2/expanded_conv_2/project/BatchNorm/gamma"
      }
    }
  }
}
node {
  name: "MobilenetV2/expanded_conv_2/project/BatchNorm/beta/Initializer/zeros"
  op: "Const"
  attr {
    key: "_class"
    value {
      list {
        s: "loc:@MobilenetV2/expanded_conv_2/project/BatchNorm/beta"
      }
    }
  }
  attr {
    key: "dtype"
    value {
      type: DT_FLOAT
    }
  }
  attr {
    key: "value"
    value {
      tensor {
        dtype: DT_FLOAT
        tensor_shape {
          dim {
            size: 16
          }
        }
        float_val: 0.0
      }
    }
  }
}
node {
  name: "MobilenetV2/expanded_conv_2/project/BatchNorm/beta"
  op: "VariableV2"
  attr {
    key: "_class"
    value {
      list {
        s: "loc:@MobilenetV2/expanded_conv_2/project/BatchNorm/beta"
      }
    }
  }
  attr {
    key: "container"
    value {
      s: ""
    }
  }
  attr {
    key: "dtype"
    value {
      type: DT_FLOAT
    }
  }
  attr {
    key: "shape"
    value {
      shape {
        dim {
          size: 16
        }
      }
    }
  }
  attr {
    key: "shared_name"
    value {
      s: ""
    }
  }
}
node {
  name: "MobilenetV2/expanded_conv_2/project/BatchNorm/beta/Assign"
  op: "Assign"
  input: "MobilenetV2/expanded_conv_2/project/BatchNorm/beta"
  input: "MobilenetV2/expanded_conv_2/project/BatchNorm/beta/Initializer/zeros"
  attr {
    key: "T"
    value {
      type: DT_FLOAT
    }
  }
  attr {
    key: "_class"
    value {
      list {
        s: "loc:@MobilenetV2/expanded_conv_2/project/BatchNorm/beta"
      }
    }
  }
  attr {
    key: "use_locking"
    value {
      b: true
    }
  }
  attr {
    key: "validate_shape"
    value {
      b: true
    }
  }
}
node {
  name: "MobilenetV2/expanded_conv_2/project/BatchNorm/beta/read"
  op: "Identity"
  input: "MobilenetV2/expanded_conv_2/project/BatchNorm/beta"
  attr {
    key: "T"
    value {
      type: DT_FLOAT
    }
  }
  attr {
    key: "_class"
    value {
      list {
        s: "loc:@MobilenetV2/expanded_conv_2/project/BatchNorm/beta"
      }
    }
  }
}
node {
  name: "MobilenetV2/expanded_conv_2/project/BatchNorm/moving_mean/Initializer/zeros"
  op: "Const"
  attr {
    key: "_class"
    value {
      list {
        s: "loc:@MobilenetV2/expanded_conv_2/project/BatchNorm/moving_mean"
      }
    }
  }
  attr {
    key: "dtype"
    value {
      type: DT_FLOAT
    }
  }
  attr {
    key: "value"
    value {
      tensor {
        dtype: DT_FLOAT
        tensor_shape {
          dim {
            size: 16
          }
        }
        float_val: 0.0
      }
    }
  }
}
node {
  name: "MobilenetV2/expanded_conv_2/project/BatchNorm/moving_mean"
  op: "VariableV2"
  attr {
    key: "_class"
    value {
      list {
        s: "loc:@MobilenetV2/expanded_conv_2/project/BatchNorm/moving_mean"
      }
    }
  }
  attr {
    key: "container"
    value {
      s: ""
    }
  }
  attr {
    key: "dtype"
    value {
      type: DT_FLOAT
    }
  }
  attr {
    key: "shape"
    value {
      shape {
        dim {
          size: 16
        }
      }
    }
  }
  attr {
    key: "shared_name"
    value {
      s: ""
    }
  }
}
node {
  name: "MobilenetV2/expanded_conv_2/project/BatchNorm/moving_mean/Assign"
  op: "Assign"
  input: "MobilenetV2/expanded_conv_2/project/BatchNorm/moving_mean"
  input: "MobilenetV2/expanded_conv_2/project/BatchNorm/moving_mean/Initializer/zeros"
  attr {
    key: "T"
    value {
      type: DT_FLOAT
    }
  }
  attr {
    key: "_class"
    value {
      list {
        s: "loc:@MobilenetV2/expanded_conv_2/project/BatchNorm/moving_mean"
      }
    }
  }
  attr {
    key: "use_locking"
    value {
      b: true
    }
  }
  attr {
    key: "validate_shape"
    value {
      b: true
    }
  }
}
node {
  name: "MobilenetV2/expanded_conv_2/project/BatchNorm/moving_mean/read"
  op: "Identity"
  input: "MobilenetV2/expanded_conv_2/project/BatchNorm/moving_mean"
  attr {
    key: "T"
    value {
      type: DT_FLOAT
    }
  }
  attr {
    key: "_class"
    value {
      list {
        s: "loc:@MobilenetV2/expanded_conv_2/project/BatchNorm/moving_mean"
      }
    }
  }
}
node {
  name: "MobilenetV2/expanded_conv_2/project/BatchNorm/moving_variance/Initializer/ones"
  op: "Const"
  attr {
    key: "_class"
    value {
      list {
        s: "loc:@MobilenetV2/expanded_conv_2/project/BatchNorm/moving_variance"
      }
    }
  }
  attr {
    key: "dtype"
    value {
      type: DT_FLOAT
    }
  }
  attr {
    key: "value"
    value {
      tensor {
        dtype: DT_FLOAT
        tensor_shape {
          dim {
            size: 16
          }
        }
        float_val: 1.0
      }
    }
  }
}
node {
  name: "MobilenetV2/expanded_conv_2/project/BatchNorm/moving_variance"
  op: "VariableV2"
  attr {
    key: "_class"
    value {
      list {
        s: "loc:@MobilenetV2/expanded_conv_2/project/BatchNorm/moving_variance"
      }
    }
  }
  attr {
    key: "container"
    value {
      s: ""
    }
  }
  attr {
    key: "dtype"
    value {
      type: DT_FLOAT
    }
  }
  attr {
    key: "shape"
    value {
      shape {
        dim {
          size: 16
        }
      }
    }
  }
  attr {
    key: "shared_name"
    value {
      s: ""
    }
  }
}
node {
  name: "MobilenetV2/expanded_conv_2/project/BatchNorm/moving_variance/Assign"
  op: "Assign"
  input: "MobilenetV2/expanded_conv_2/project/BatchNorm/moving_variance"
  input: "MobilenetV2/expanded_conv_2/project/BatchNorm/moving_variance/Initializer/ones"
  attr {
    key: "T"
    value {
      type: DT_FLOAT
    }
  }
  attr {
    key: "_class"
    value {
      list {
        s: "loc:@MobilenetV2/expanded_conv_2/project/BatchNorm/moving_variance"
      }
    }
  }
  attr {
    key: "use_locking"
    value {
      b: true
    }
  }
  attr {
    key: "validate_shape"
    value {
      b: true
    }
  }
}
node {
  name: "MobilenetV2/expanded_conv_2/project/BatchNorm/moving_variance/read"
  op: "Identity"
  input: "MobilenetV2/expanded_conv_2/project/BatchNorm/moving_variance"
  attr {
    key: "T"
    value {
      type: DT_FLOAT
    }
  }
  attr {
    key: "_class"
    value {
      list {
        s: "loc:@MobilenetV2/expanded_conv_2/project/BatchNorm/moving_variance"
      }
    }
  }
}
node {
  name: "MobilenetV2/expanded_conv_2/project/BatchNorm/FusedBatchNormV3"
  op: "FusedBatchNormV3"
  input: "MobilenetV2/expanded_conv_2/project/Conv2D"
  input: "MobilenetV2/expanded_conv_2/project/BatchNorm/gamma/read"
  input: "MobilenetV2/expanded_conv_2/project/BatchNorm/beta/read"
  input: "MobilenetV2/expanded_conv_2/project/BatchNorm/moving_mean/read"
  input: "MobilenetV2/expanded_conv_2/project/BatchNorm/moving_variance/read"
  attr {
    key: "T"
    value {
      type: DT_FLOAT
    }
  }
  attr {
    key: "U"
    value {
      type: DT_FLOAT
    }
  }
  attr {
    key: "data_format"
    value {
      s: "NHWC"
    }
  }
  attr {
    key: "epsilon"
    value {
      f: 0.0010000000474974513
    }
  }
  attr {
    key: "is_training"
    value {
      b: false
    }
  }
}
node {
  name: "MobilenetV2/expanded_conv_2/project/BatchNorm/Const"
  op: "Const"
  attr {
    key: "dtype"
    value {
      type: DT_FLOAT
    }
  }
  attr {
    key: "value"
    value {
      tensor {
        dtype: DT_FLOAT
        tensor_shape {
        }
        float_val: 0.996999979019165
      }
    }
  }
}
node {
  name: "MobilenetV2/expanded_conv_2/project/Identity"
  op: "Identity"
  input: "MobilenetV2/expanded_conv_2/project/BatchNorm/FusedBatchNormV3"
  attr {
    key: "T"
    value {
      type: DT_FLOAT
    }
  }
}
node {
  name: "MobilenetV2/expanded_conv_2/add"
  op: "AddV2"
  input: "MobilenetV2/expanded_conv_2/project/Identity"
  input: "MobilenetV2/expanded_conv_2/input"
  attr {
    key: "T"
    value {
      type: DT_FLOAT
    }
  }
}
node {
  name: "MobilenetV2/expanded_conv_2/output"
  op: "Identity"
  input: "MobilenetV2/expanded_conv_2/add"
  attr {
    key: "T"
    value {
      type: DT_FLOAT
    }
  }
}
node {
  name: "MobilenetV2/expanded_conv_3/input"
  op: "Identity"
  input: "MobilenetV2/expanded_conv_2/output"
  attr {
    key: "T"
    value {
      type: DT_FLOAT
    }
  }
}
node {
  name: "MobilenetV2/expanded_conv_3/expand/weights/Initializer/truncated_normal/shape"
  op: "Const"
  attr {
    key: "_class"
    value {
      list {
        s: "loc:@MobilenetV2/expanded_conv_3/expand/weights"
      }
    }
  }
  attr {
    key: "dtype"
    value {
      type: DT_INT32
    }
  }
  attr {
    key: "value"
    value {
      tensor {
        dtype: DT_INT32
        tensor_shape {
          dim {
            size: 4
          }
        }
        tensor_content: "\001\000\000\000\001\000\000\000\020\000\000\000`\000\000\000"
      }
    }
  }
}
node {
  name: "MobilenetV2/expanded_conv_3/expand/weights/Initializer/truncated_normal/mean"
  op: "Const"
  attr {
    key: "_class"
    value {
      list {
        s: "loc:@MobilenetV2/expanded_conv_3/expand/weights"
      }
    }
  }
  attr {
    key: "dtype"
    value {
      type: DT_FLOAT
    }
  }
  attr {
    key: "value"
    value {
      tensor {
        dtype: DT_FLOAT
        tensor_shape {
        }
        float_val: 0.0
      }
    }
  }
}
node {
  name: "MobilenetV2/expanded_conv_3/expand/weights/Initializer/truncated_normal/stddev"
  op: "Const"
  attr {
    key: "_class"
    value {
      list {
        s: "loc:@MobilenetV2/expanded_conv_3/expand/weights"
      }
    }
  }
  attr {
    key: "dtype"
    value {
      type: DT_FLOAT
    }
  }
  attr {
    key: "value"
    value {
      tensor {
        dtype: DT_FLOAT
        tensor_shape {
        }
        float_val: 0.09000000357627869
      }
    }
  }
}
node {
  name: "MobilenetV2/expanded_conv_3/expand/weights/Initializer/truncated_normal/TruncatedNormal"
  op: "TruncatedNormal"
  input: "MobilenetV2/expanded_conv_3/expand/weights/Initializer/truncated_normal/shape"
  attr {
    key: "T"
    value {
      type: DT_INT32
    }
  }
  attr {
    key: "_class"
    value {
      list {
        s: "loc:@MobilenetV2/expanded_conv_3/expand/weights"
      }
    }
  }
  attr {
    key: "dtype"
    value {
      type: DT_FLOAT
    }
  }
  attr {
    key: "seed"
    value {
      i: 0
    }
  }
  attr {
    key: "seed2"
    value {
      i: 0
    }
  }
}
node {
  name: "MobilenetV2/expanded_conv_3/expand/weights/Initializer/truncated_normal/mul"
  op: "Mul"
  input: "MobilenetV2/expanded_conv_3/expand/weights/Initializer/truncated_normal/TruncatedNormal"
  input: "MobilenetV2/expanded_conv_3/expand/weights/Initializer/truncated_normal/stddev"
  attr {
    key: "T"
    value {
      type: DT_FLOAT
    }
  }
  attr {
    key: "_class"
    value {
      list {
        s: "loc:@MobilenetV2/expanded_conv_3/expand/weights"
      }
    }
  }
}
node {
  name: "MobilenetV2/expanded_conv_3/expand/weights/Initializer/truncated_normal"
  op: "Add"
  input: "MobilenetV2/expanded_conv_3/expand/weights/Initializer/truncated_normal/mul"
  input: "MobilenetV2/expanded_conv_3/expand/weights/Initializer/truncated_normal/mean"
  attr {
    key: "T"
    value {
      type: DT_FLOAT
    }
  }
  attr {
    key: "_class"
    value {
      list {
        s: "loc:@MobilenetV2/expanded_conv_3/expand/weights"
      }
    }
  }
}
node {
  name: "MobilenetV2/expanded_conv_3/expand/weights"
  op: "VariableV2"
  attr {
    key: "_class"
    value {
      list {
        s: "loc:@MobilenetV2/expanded_conv_3/expand/weights"
      }
    }
  }
  attr {
    key: "container"
    value {
      s: ""
    }
  }
  attr {
    key: "dtype"
    value {
      type: DT_FLOAT
    }
  }
  attr {
    key: "shape"
    value {
      shape {
        dim {
          size: 1
        }
        dim {
          size: 1
        }
        dim {
          size: 16
        }
        dim {
          size: 96
        }
      }
    }
  }
  attr {
    key: "shared_name"
    value {
…
  input: "save/RestoreV2:241"
  attr {
    key: "T"
    value {
      type: DT_FLOAT
    }
  }
  attr {
    key: "_class"
    value {
      list {
        s: "loc:@MobilenetV2/expanded_conv_7/depthwise/BatchNorm/gamma"
      }
    }
  }
  attr {
    key: "use_locking"
    value {
      b: true
    }
  }
  attr {
    key: "validate_shape"
    value {
      b: true
    }
  }
}
node {
  name: "save/Assign_242"
  op: "Assign"
  input: "MobilenetV2/expanded_conv_7/depthwise/BatchNorm/moving_mean"
  input: "save/RestoreV2:242"
  attr {
    key: "T"
    value {
      type: DT_FLOAT
    }
  }
  attr {
    key: "_class"
    value {
      list {
        s: "loc:@MobilenetV2/expanded_conv_7/depthwise/BatchNorm/moving_mean"
      }
    }
  }
  attr {
    key: "use_locking"
    value {
      b: true
    }
  }
  attr {
    key: "validate_shape"
    value {
      b: true
    }
  }
}
node {
  name: "save/Assign_243"
  op: "Assign"
  input: "MobilenetV2/expanded_conv_7/depthwise/BatchNorm/moving_variance"
  input: "save/RestoreV2:243"
  attr {
    key: "T"
    value {
      type: DT_FLOAT
    }
  }
  attr {
    key: "_class"
    value {
      list {
        s: "loc:@MobilenetV2/expanded_conv_7/depthwise/BatchNorm/moving_variance"
      }
    }
  }
  attr {
    key: "use_locking"
    value {
      b: true
    }
  }
  attr {
    key: "validate_shape"
    value {
      b: true
    }
  }
}
node {
  name: "save/Assign_244"
  op: "Assign"
  input: "MobilenetV2/expanded_conv_7/depthwise/depthwise_weights"
  input: "save/RestoreV2:244"
  attr {
    key: "T"
    value {
      type: DT_FLOAT
    }
  }
  attr {
    key: "_class"
    value {
      list {
        s: "loc:@MobilenetV2/expanded_conv_7/depthwise/depthwise_weights"
      }
    }
  }
  attr {
    key: "use_locking"
    value {
      b: true
    }
  }
  attr {
    key: "validate_shape"
    value {
      b: true
    }
  }
}
node {
  name: "save/Assign_245"
  op: "Assign"
  input: "MobilenetV2/expanded_conv_7/expand/BatchNorm/beta"
  input: "save/RestoreV2:245"
  attr {
    key: "T"
    value {
      type: DT_FLOAT
    }
  }
  attr {
    key: "_class"
    value {
      list {
        s: "loc:@MobilenetV2/expanded_conv_7/expand/BatchNorm/beta"
      }
    }
  }
  attr {
    key: "use_locking"
    value {
      b: true
    }
  }
  attr {
    key: "validate_shape"
    value {
      b: true
    }
  }
}
node {
  name: "save/Assign_246"
  op: "Assign"
  input: "MobilenetV2/expanded_conv_7/expand/BatchNorm/gamma"
  input: "save/RestoreV2:246"
  attr {
    key: "T"
    value {
      type: DT_FLOAT
    }
  }
  attr {
    key: "_class"
    value {
      list {
        s: "loc:@MobilenetV2/expanded_conv_7/expand/BatchNorm/gamma"
      }
    }
  }
  attr {
    key: "use_locking"
    value {
      b: true
    }
  }
  attr {
    key: "validate_shape"
    value {
      b: true
    }
  }
}
node {
  name: "save/Assign_247"
  op: "Assign"
  input: "MobilenetV2/expanded_conv_7/expand/BatchNorm/moving_mean"
  input: "save/RestoreV2:247"
  attr {
    key: "T"
    value {
      type: DT_FLOAT
    }
  }
  attr {
    key: "_class"
    value {
      list {
        s: "loc:@MobilenetV2/expanded_conv_7/expand/BatchNorm/moving_mean"
      }
    }
  }
  attr {
    key: "use_locking"
    value {
      b: true
    }
  }
  attr {
    key: "validate_shape"
    value {
      b: true
    }
  }
}
node {
  name: "save/Assign_248"
  op: "Assign"
  input: "MobilenetV2/expanded_conv_7/expand/BatchNorm/moving_variance"
  input: "save/RestoreV2:248"
  attr {
    key: "T"
    value {
      type: DT_FLOAT
    }
  }
  attr {
    key: "_class"
    value {
      list {
        s: "loc:@MobilenetV2/expanded_conv_7/expand/BatchNorm/moving_variance"
      }
    }
  }
  attr {
    key: "use_locking"
    value {
      b: true
    }
  }
  attr {
    key: "validate_shape"
    value {
      b: true
    }
  }
}
node {
  name: "save/Assign_249"
  op: "Assign"
  input: "MobilenetV2/expanded_conv_7/expand/weights"
  input: "save/RestoreV2:249"
  attr {
    key: "T"
    value {
      type: DT_FLOAT
    }
  }
  attr {
    key: "_class"
    value {
      list {
        s: "loc:@MobilenetV2/expanded_conv_7/expand/weights"
      }
    }
  }
  attr {
    key: "use_locking"
    value {
      b: true
    }
  }
  attr {
    key: "validate_shape"
    value {
      b: true
    }
  }
}
node {
  name: "save/Assign_250"
  op: "Assign"
  input: "MobilenetV2/expanded_conv_7/project/BatchNorm/beta"
  input: "save/RestoreV2:250"
  attr {
    key: "T"
    value {
      type: DT_FLOAT
    }
  }
  attr {
    key: "_class"
    value {
      list {
        s: "loc:@MobilenetV2/expanded_conv_7/project/BatchNorm/beta"
      }
    }
  }
  attr {
    key: "use_locking"
    value {
      b: true
    }
  }
  attr {
    key: "validate_shape"
    value {
      b: true
    }
  }
}
node {
  name: "save/Assign_251"
  op: "Assign"
  input: "MobilenetV2/expanded_conv_7/project/BatchNorm/gamma"
  input: "save/RestoreV2:251"
  attr {
    key: "T"
    value {
      type: DT_FLOAT
    }
  }
  attr {
    key: "_class"
    value {
      list {
        s: "loc:@MobilenetV2/expanded_conv_7/project/BatchNorm/gamma"
      }
    }
  }
  attr {
    key: "use_locking"
    value {
      b: true
    }
  }
  attr {
    key: "validate_shape"
    value {
      b: true
    }
  }
}
node {
  name: "save/Assign_252"
  op: "Assign"
  input: "MobilenetV2/expanded_conv_7/project/BatchNorm/moving_mean"
  input: "save/RestoreV2:252"
  attr {
    key: "T"
    value {
      type: DT_FLOAT
    }
  }
  attr {
    key: "_class"
    value {
      list {
        s: "loc:@MobilenetV2/expanded_conv_7/project/BatchNorm/moving_mean"
      }
    }
  }
  attr {
    key: "use_locking"
    value {
      b: true
    }
  }
  attr {
    key: "validate_shape"
    value {
      b: true
    }
  }
}
node {
  name: "save/Assign_253"
  op: "Assign"
  input: "MobilenetV2/expanded_conv_7/project/BatchNorm/moving_variance"
  input: "save/RestoreV2:253"
  attr {
    key: "T"
    value {
      type: DT_FLOAT
    }
  }
  attr {
    key: "_class"
    value {
      list {
        s: "loc:@MobilenetV2/expanded_conv_7/project/BatchNorm/moving_variance"
      }
    }
  }
  attr {
    key: "use_locking"
    value {
      b: true
    }
  }
  attr {
    key: "validate_shape"
    value {
      b: true
    }
  }
}
node {
  name: "save/Assign_254"
  op: "Assign"
  input: "MobilenetV2/expanded_conv_7/project/weights"
  input: "save/RestoreV2:254"
  attr {
    key: "T"
    value {
      type: DT_FLOAT
    }
  }
  attr {
    key: "_class"
    value {
      list {
        s: "loc:@MobilenetV2/expanded_conv_7/project/weights"
      }
    }
  }
  attr {
    key: "use_locking"
    value {
      b: true
    }
  }
  attr {
    key: "validate_shape"
    value {
      b: true
    }
  }
}
node {
  name: "save/Assign_255"
  op: "Assign"
  input: "MobilenetV2/expanded_conv_8/depthwise/BatchNorm/beta"
  input: "save/RestoreV2:255"
  attr {
    key: "T"
    value {
      type: DT_FLOAT
    }
  }
  attr {
    key: "_class"
    value {
      list {
        s: "loc:@MobilenetV2/expanded_conv_8/depthwise/BatchNorm/beta"
      }
    }
  }
  attr {
    key: "use_locking"
    value {
      b: true
    }
  }
  attr {
    key: "validate_shape"
    value {
      b: true
    }
  }
}
node {
  name: "save/Assign_256"
  op: "Assign"
  input: "MobilenetV2/expanded_conv_8/depthwise/BatchNorm/gamma"
  input: "save/RestoreV2:256"
  attr {
    key: "T"
    value {
      type: DT_FLOAT
    }
  }
  attr {
    key: "_class"
    value {
      list {
        s: "loc:@MobilenetV2/expanded_conv_8/depthwise/BatchNorm/gamma"
      }
    }
  }
  attr {
    key: "use_locking"
    value {
      b: true
    }
  }
  attr {
    key: "validate_shape"
    value {
      b: true
    }
  }
}
node {
  name: "save/Assign_257"
  op: "Assign"
  input: "MobilenetV2/expanded_conv_8/depthwise/BatchNorm/moving_mean"
  input: "save/RestoreV2:257"
  attr {
    key: "T"
    value {
      type: DT_FLOAT
    }
  }
  attr {
    key: "_class"
    value {
      list {
        s: "loc:@MobilenetV2/expanded_conv_8/depthwise/BatchNorm/moving_mean"
      }
    }
  }
  attr {
    key: "use_locking"
    value {
      b: true
    }
  }
  attr {
    key: "validate_shape"
    value {
      b: true
    }
  }
}
node {
  name: "save/Assign_258"
  op: "Assign"
  input: "MobilenetV2/expanded_conv_8/depthwise/BatchNorm/moving_variance"
  input: "save/RestoreV2:258"
  attr {
    key: "T"
    value {
      type: DT_FLOAT
    }
  }
  attr {
    key: "_class"
    value {
      list {
        s: "loc:@MobilenetV2/expanded_conv_8/depthwise/BatchNorm/moving_variance"
      }
    }
  }
  attr {
    key: "use_locking"
    value {
      b: true
    }
  }
  attr {
    key: "validate_shape"
    value {
      b: true
    }
  }
}
node {
  name: "save/Assign_259"
  op: "Assign"
  input: "MobilenetV2/expanded_conv_8/depthwise/depthwise_weights"
  input: "save/RestoreV2:259"
  attr {
    key: "T"
    value {
      type: DT_FLOAT
    }
  }
  attr {
    key: "_class"
    value {
      list {
        s: "loc:@MobilenetV2/expanded_conv_8/depthwise/depthwise_weights"
      }
    }
  }
  attr {
    key: "use_locking"
    value {
      b: true
    }
  }
  attr {
    key: "validate_shape"
    value {
      b: true
    }
  }
}
node {
  name: "save/Assign_260"
  op: "Assign"
  input: "MobilenetV2/expanded_conv_8/expand/BatchNorm/beta"
  input: "save/RestoreV2:260"
  attr {
    key: "T"
    value {
      type: DT_FLOAT
    }
  }
  attr {
    key: "_class"
    value {
      list {
        s: "loc:@MobilenetV2/expanded_conv_8/expand/BatchNorm/beta"
      }
    }
  }
  attr {
    key: "use_locking"
    value {
      b: true
    }
  }
  attr {
    key: "validate_shape"
    value {
      b: true
    }
  }
}
node {
  name: "save/Assign_261"
  op: "Assign"
  input: "MobilenetV2/expanded_conv_8/expand/BatchNorm/gamma"
  input: "save/RestoreV2:261"
  attr {
    key: "T"
    value {
      type: DT_FLOAT
    }
  }
  attr {
    key: "_class"
    value {
      list {
        s: "loc:@MobilenetV2/expanded_conv_8/expand/BatchNorm/gamma"
      }
    }
  }
  attr {
    key: "use_locking"
    value {
      b: true
    }
  }
  attr {
    key: "validate_shape"
    value {
      b: true
    }
  }
}
node {
  name: "save/Assign_262"
  op: "Assign"
  input: "MobilenetV2/expanded_conv_8/expand/BatchNorm/moving_mean"
  input: "save/RestoreV2:262"
  attr {
    key: "T"
    value {
      type: DT_FLOAT
    }
  }
  attr {
    key: "_class"
    value {
      list {
        s: "loc:@MobilenetV2/expanded_conv_8/expand/BatchNorm/moving_mean"
      }
    }
  }
  attr {
    key: "use_locking"
    value {
      b: true
    }
  }
  attr {
    key: "validate_shape"
    value {
      b: true
    }
  }
}
node {
  name: "save/Assign_263"
  op: "Assign"
  input: "MobilenetV2/expanded_conv_8/expand/BatchNorm/moving_variance"
  input: "save/RestoreV2:263"
  attr {
    key: "T"
    value {
      type: DT_FLOAT
    }
  }
  attr {
    key: "_class"
    value {
      list {
        s: "loc:@MobilenetV2/expanded_conv_8/expand/BatchNorm/moving_variance"
      }
    }
  }
  attr {
    key: "use_locking"
    value {
      b: true
    }
  }
  attr {
    key: "validate_shape"
    value {
      b: true
    }
  }
}
node {
  name: "save/Assign_264"
  op: "Assign"
  input: "MobilenetV2/expanded_conv_8/expand/weights"
  input: "save/RestoreV2:264"
  attr {
    key: "T"
    value {
      type: DT_FLOAT
    }
  }
  attr {
    key: "_class"
    value {
      list {
        s: "loc:@MobilenetV2/expanded_conv_8/expand/weights"
      }
    }
  }
  attr {
    key: "use_locking"
    value {
      b: true
    }
  }
  attr {
    key: "validate_shape"
    value {
      b: true
    }
  }
}
node {
  name: "save/Assign_265"
  op: "Assign"
  input: "MobilenetV2/expanded_conv_8/project/BatchNorm/beta"
  input: "save/RestoreV2:265"
  attr {
    key: "T"
    value {
      type: DT_FLOAT
    }
  }
  attr {
    key: "_class"
    value {
      list {
        s: "loc:@MobilenetV2/expanded_conv_8/project/BatchNorm/beta"
      }
    }
  }
  attr {
    key: "use_locking"
    value {
      b: true
    }
  }
  attr {
    key: "validate_shape"
    value {
      b: true
    }
  }
}
node {
  name: "save/Assign_266"
  op: "Assign"
  input: "MobilenetV2/expanded_conv_8/project/BatchNorm/gamma"
  input: "save/RestoreV2:266"
  attr {
    key: "T"
    value {
      type: DT_FLOAT
    }
  }
  attr {
    key: "_class"
    value {
      list {
        s: "loc:@MobilenetV2/expanded_conv_8/project/BatchNorm/gamma"
      }
    }
  }
  attr {
    key: "use_locking"
    value {
      b: true
    }
  }
  attr {
    key: "validate_shape"
    value {
      b: true
    }
  }
}
node {
  name: "save/Assign_267"
  op: "Assign"
  input: "MobilenetV2/expanded_conv_8/project/BatchNorm/moving_mean"
  input: "save/RestoreV2:267"
  attr {
    key: "T"
    value {
      type: DT_FLOAT
    }
  }
  attr {
    key: "_class"
    value {
      list {
        s: "loc:@MobilenetV2/expanded_conv_8/project/BatchNorm/moving_mean"
      }
    }
  }
  attr {
    key: "use_locking"
    value {
      b: true
    }
  }
  attr {
    key: "validate_shape"
    value {
      b: true
    }
  }
}
node {
  name: "save/Assign_268"
  op: "Assign"
  input: "MobilenetV2/expanded_conv_8/project/BatchNorm/moving_variance"
  input: "save/RestoreV2:268"
  attr {
    key: "T"
    value {
      type: DT_FLOAT
    }
  }
  attr {
    key: "_class"
    value {
      list {
        s: "loc:@MobilenetV2/expanded_conv_8/project/BatchNorm/moving_variance"
      }
    }
  }
  attr {
    key: "use_locking"
    value {
      b: true
    }
  }
  attr {
    key: "validate_shape"
    value {
      b: true
    }
  }
}
node {
  name: "save/Assign_269"
  op: "Assign"
  input: "MobilenetV2/expanded_conv_8/project/weights"
  input: "save/RestoreV2:269"
  attr {
    key: "T"
    value {
      type: DT_FLOAT
    }
  }
  attr {
    key: "_class"
    value {
      list {
        s: "loc:@MobilenetV2/expanded_conv_8/project/weights"
      }
    }
  }
  attr {
    key: "use_locking"
    value {
      b: true
    }
  }
  attr {
    key: "validate_shape"
    value {
      b: true
    }
  }
}
node {
  name: "save/Assign_270"
  op: "Assign"
  input: "MobilenetV2/expanded_conv_9/depthwise/BatchNorm/beta"
  input: "save/RestoreV2:270"
  attr {
    key: "T"
    value {
      type: DT_FLOAT
    }
  }
  attr {
    key: "_class"
    value {
      list {
        s: "loc:@MobilenetV2/expanded_conv_9/depthwise/BatchNorm/beta"
      }
    }
  }
  attr {
    key: "use_locking"
    value {
      b: true
    }
  }
  attr {
    key: "validate_shape"
    value {
      b: true
    }
  }
}
node {
  name: "save/Assign_271"
  op: "Assign"
  input: "MobilenetV2/expanded_conv_9/depthwise/BatchNorm/gamma"
  input: "save/RestoreV2:271"
  attr {
    key: "T"
    value {
      type: DT_FLOAT
    }
  }
  attr {
    key: "_class"
    value {
      list {
        s: "loc:@MobilenetV2/expanded_conv_9/depthwise/BatchNorm/gamma"
      }
    }
  }
  attr {
    key: "use_locking"
    value {
      b: true
    }
  }
  attr {
    key: "validate_shape"
    value {
      b: true
    }
  }
}
node {
  name: "save/Assign_272"
  op: "Assign"
  input: "MobilenetV2/expanded_conv_9/depthwise/BatchNorm/moving_mean"
  input: "save/RestoreV2:272"
  attr {
    key: "T"
    value {
      type: DT_FLOAT
    }
  }
  attr {
    key: "_class"
    value {
      list {
        s: "loc:@MobilenetV2/expanded_conv_9/depthwise/BatchNorm/moving_mean"
      }
    }
  }
  attr {
    key: "use_locking"
    value {
      b: true
    }
  }
  attr {
    key: "validate_shape"
    value {
      b: true
    }
  }
}
node {
  name: "save/Assign_273"
  op: "Assign"
  input: "MobilenetV2/expanded_conv_9/depthwise/BatchNorm/moving_variance"
  input: "save/RestoreV2:273"
  attr {
    key: "T"
    value {
      type: DT_FLOAT
    }
  }
  attr {
    key: "_class"
    value {
      list {
        s: "loc:@MobilenetV2/expanded_conv_9/depthwise/BatchNorm/moving_variance"
      }
    }
  }
  attr {
    key: "use_locking"
    value {
      b: true
    }
  }
  attr {
    key: "validate_shape"
    value {
      b: true
    }
  }
}
node {
  name: "save/Assign_274"
  op: "Assign"
  input: "MobilenetV2/expanded_conv_9/depthwise/depthwise_weights"
  input: "save/RestoreV2:274"
  attr {
    key: "T"
    value {
      type: DT_FLOAT
    }
  }
  attr {
    key: "_class"
    value {
      list {
        s: "loc:@MobilenetV2/expanded_conv_9/depthwise/depthwise_weights"
      }
    }
  }
  attr {
    key: "use_locking"
    value {
      b: true
    }
  }
  attr {
    key: "validate_shape"
    value {
      b: true
    }
  }
}
node {
  name: "save/Assign_275"
  op: "Assign"
  input: "MobilenetV2/expanded_conv_9/expand/BatchNorm/beta"
  input: "save/RestoreV2:275"
  attr {
    key: "T"
    value {
      type: DT_FLOAT
    }
  }
  attr {
    key: "_class"
    value {
      list {
        s: "loc:@MobilenetV2/expanded_conv_9/expand/BatchNorm/beta"
      }
    }
  }
  attr {
    key: "use_locking"
    value {
      b: true
    }
  }
  attr {
    key: "validate_shape"
    value {
      b: true
    }
  }
}
node {
  name: "save/Assign_276"
  op: "Assign"
  input: "MobilenetV2/expanded_conv_9/expand/BatchNorm/gamma"
  input: "save/RestoreV2:276"
  attr {
    key: "T"
    value {
      type: DT_FLOAT
    }
  }
  attr {
    key: "_class"
    value {
      list {
        s: "loc:@MobilenetV2/expanded_conv_9/expand/BatchNorm/gamma"
      }
    }
  }
  attr {
    key: "use_locking"
    value {
      b: true
    }
  }
  attr {
    key: "validate_shape"
    value {
      b: true
    }
  }
}
node {
  name: "save/Assign_277"
  op: "Assign"
  input: "MobilenetV2/expanded_conv_9/expand/BatchNorm/moving_mean"
  input: "save/RestoreV2:277"
  attr {
    key: "T"
    value {
      type: DT_FLOAT
    }
  }
  attr {
    key: "_class"
    value {
      list {
        s: "loc:@MobilenetV2/expanded_conv_9/expand/BatchNorm/moving_mean"
      }
    }
  }
  attr {
    key: "use_locking"
    value {
      b: true
    }
  }
  attr {
    key: "validate_shape"
    value {
      b: true
    }
  }
}
node {
  name: "save/Assign_278"
  op: "Assign"
  input: "MobilenetV2/expanded_conv_9/expand/BatchNorm/moving_variance"
  input: "save/RestoreV2:278"
  attr {
    key: "T"
    value {
      type: DT_FLOAT
    }
  }
  attr {
    key: "_class"
    value {
      list {
        s: "loc:@MobilenetV2/expanded_conv_9/expand/BatchNorm/moving_variance"
      }
    }
  }
  attr {
    key: "use_locking"
    value {
      b: true
    }
  }
  attr {
    key: "validate_shape"
    value {
      b: true
    }
  }
}
node {
  name: "save/Assign_279"
  op: "Assign"
  input: "MobilenetV2/expanded_conv_9/expand/weights"
  input: "save/RestoreV2:279"
  attr {
    key: "T"
    value {
      type: DT_FLOAT
    }
  }
  attr {
    key: "_class"
    value {
      list {
        s: "loc:@MobilenetV2/expanded_conv_9/expand/weights"
      }
    }
  }
  attr {
    key: "use_locking"
    value {
      b: true
    }
  }
  attr {
    key: "validate_shape"
    value {
      b: true
    }
  }
}
node {
  name: "save/Assign_280"
  op: "Assign"
  input: "MobilenetV2/expanded_conv_9/project/BatchNorm/beta"
  input: "save/RestoreV2:280"
  attr {
    key: "T"
    value {
      type: DT_FLOAT
    }
  }
  attr {
    key: "_class"
    value {
      list {
        s: "loc:@MobilenetV2/expanded_conv_9/project/BatchNorm/beta"
      }
    }
  }
  attr {
    key: "use_locking"
    value {
      b: true
    }
  }
  attr {
    key: "validate_shape"
    value {
      b: true
    }
  }
}
node {
  name: "save/Assign_281"
  op: "Assign"
  input: "MobilenetV2/expanded_conv_9/project/BatchNorm/gamma"
  input: "save/RestoreV2:281"
  attr {
    key: "T"
    value {
      type: DT_FLOAT
    }
  }
  attr {
    key: "_class"
    value {
      list {
        s: "loc:@MobilenetV2/expanded_conv_9/project/BatchNorm/gamma"
      }
    }
  }
  attr {
    key: "use_locking"
    value {
      b: true
    }
  }
  attr {
    key: "validate_shape"
    value {
      b: true
    }
  }
}
node {
  name: "save/Assign_282"
  op: "Assign"
  input: "MobilenetV2/expanded_conv_9/project/BatchNorm/moving_mean"
  input: "save/RestoreV2:282"
  attr {
    key: "T"
    value {
      type: DT_FLOAT
    }
  }
  attr {
    key: "_class"
    value {
      list {
        s: "loc:@MobilenetV2/expanded_conv_9/project/BatchNorm/moving_mean"
      }
    }
  }
  attr {
    key: "use_locking"
    value {
      b: true
    }
  }
  attr {
    key: "validate_shape"
    value {
      b: true
    }
  }
}
node {
  name: "save/Assign_283"
  op: "Assign"
  input: "MobilenetV2/expanded_conv_9/project/BatchNorm/moving_variance"
  input: "save/RestoreV2:283"
  attr {
    key: "T"
    value {
      type: DT_FLOAT
    }
  }
  attr {
    key: "_class"
    value {
      list {
        s: "loc:@MobilenetV2/expanded_conv_9/project/BatchNorm/moving_variance"
      }
    }
  }
  attr {
    key: "use_locking"
    value {
      b: true
    }
  }
  attr {
    key: "validate_shape"
    value {
      b: true
    }
  }
}
node {
  name: "save/Assign_284"
  op: "Assign"
  input: "MobilenetV2/expanded_conv_9/project/weights"
  input: "save/RestoreV2:284"
  attr {
    key: "T"
    value {
      type: DT_FLOAT
    }
  }
  attr {
    key: "_class"
    value {
      list {
        s: "loc:@MobilenetV2/expanded_conv_9/project/weights"
      }
    }
  }
  attr {
    key: "use_locking"
    value {
      b: true
    }
  }
  attr {
    key: "validate_shape"
    value {
      b: true
    }
  }
}
node {
  name: "save/Assign_285"
  op: "Assign"
  input: "p3_conv_1x1/BatchNorm/beta"
  input: "save/RestoreV2:285"
  attr {
    key: "T"
    value {
      type: DT_FLOAT
    }
  }
  attr {
    key: "_class"
    value {
      list {
        s: "loc:@p3_conv_1x1/BatchNorm/beta"
      }
    }
  }
  attr {
    key: "use_locking"
    value {
      b: true
    }
  }
  attr {
    key: "validate_shape"
    value {
      b: true
    }
  }
}
node {
  name: "save/Assign_286"
  op: "Assign"
  input: "p3_conv_1x1/BatchNorm/gamma"
  input: "save/RestoreV2:286"
  attr {
    key: "T"
    value {
      type: DT_FLOAT
    }
  }
  attr {
    key: "_class"
    value {
      list {
        s: "loc:@p3_conv_1x1/BatchNorm/gamma"
      }
    }
  }
  attr {
    key: "use_locking"
    value {
      b: true
    }
  }
  attr {
    key: "validate_shape"
    value {
      b: true
    }
  }
}
node {
  name: "save/Assign_287"
  op: "Assign"
  input: "p3_conv_1x1/BatchNorm/moving_mean"
  input: "save/RestoreV2:287"
  attr {
    key: "T"
    value {
      type: DT_FLOAT
    }
  }
  attr {
    key: "_class"
    value {
      list {
        s: "loc:@p3_conv_1x1/BatchNorm/moving_mean"
      }
    }
  }
  attr {
    key: "use_locking"
    value {
      b: true
    }
  }
  attr {
    key: "validate_shape"
    value {
      b: true
    }
  }
}
node {
  name: "save/Assign_288"
  op: "Assign"
  input: "p3_conv_1x1/BatchNorm/moving_variance"
  input: "save/RestoreV2:288"
  attr {
    key: "T"
    value {
      type: DT_FLOAT
    }
  }
  attr {
    key: "_class"
    value {
      list {
        s: "loc:@p3_conv_1x1/BatchNorm/moving_variance"
      }
    }
  }
  attr {
    key: "use_locking"
    value {
      b: true
    }
  }
  attr {
    key: "validate_shape"
    value {
      b: true
    }
  }
}
node {
  name: "save/Assign_289"
  op: "Assign"
  input: "p3_conv_1x1/weights"
  input: "save/RestoreV2:289"
  attr {
    key: "T"
    value {
      type: DT_FLOAT
    }
  }
  attr {
    key: "_class"
    value {
      list {
        s: "loc:@p3_conv_1x1/weights"
      }
    }
  }
  attr {
    key: "use_locking"
    value {
      b: true
    }
  }
  attr {
    key: "validate_shape"
    value {
      b: true
    }
  }
}
node {
  name: "save/Assign_290"
  op: "Assign"
  input: "p3_upsample/Conv2d_transpose/BatchNorm/beta"
  input: "save/RestoreV2:290"
  attr {
    key: "T"
    value {
      type: DT_FLOAT
    }
  }
  attr {
    key: "_class"
    value {
      list {
        s: "loc:@p3_upsample/Conv2d_transpose/BatchNorm/beta"
      }
    }
  }
  attr {
    key: "use_locking"
    value {
      b: true
    }
  }
  attr {
    key: "validate_shape"
    value {
      b: true
    }
  }
}
node {
  name: "save/Assign_291"
  op: "Assign"
  input: "p3_upsample/Conv2d_transpose/BatchNorm/gamma"
  input: "save/RestoreV2:291"
  attr {
    key: "T"
    value {
      type: DT_FLOAT
    }
  }
  attr {
    key: "_class"
    value {
      list {
        s: "loc:@p3_upsample/Conv2d_transpose/BatchNorm/gamma"
      }
    }
  }
  attr {
    key: "use_locking"
    value {
      b: true
    }
  }
  attr {
    key: "validate_shape"
    value {
      b: true
    }
  }
}
node {
  name: "save/Assign_292"
  op: "Assign"
  input: "p3_upsample/Conv2d_transpose/BatchNorm/moving_mean"
  input: "save/RestoreV2:292"
  attr {
    key: "T"
    value {
      type: DT_FLOAT
    }
  }
  attr {
    key: "_class"
    value {
      list {
        s: "loc:@p3_upsample/Conv2d_transpose/BatchNorm/moving_mean"
      }
    }
  }
  attr {
    key: "use_locking"
    value {
      b: true
    }
  }
  attr {
    key: "validate_shape"
    value {
      b: true
    }
  }
}
node {
  name: "save/Assign_293"
  op: "Assign"
  input: "p3_upsample/Conv2d_transpose/BatchNorm/moving_variance"
  input: "save/RestoreV2:293"
  attr {
    key: "T"
    value {
      type: DT_FLOAT
    }
  }
  attr {
    key: "_class"
    value {
      list {
        s: "loc:@p3_upsample/Conv2d_transpose/BatchNorm/moving_variance"
      }
    }
  }
  attr {
    key: "use_locking"
    value {
      b: true
    }
  }
  attr {
    key: "validate_shape"
    value {
      b: true
    }
  }
}
node {
  name: "save/Assign_294"
  op: "Assign"
  input: "p3_upsample/Conv2d_transpose/weights"
  input: "save/RestoreV2:294"
  attr {
    key: "T"
    value {
      type: DT_FLOAT
    }
  }
  attr {
    key: "_class"
    value {
      list {
        s: "loc:@p3_upsample/Conv2d_transpose/weights"
      }
    }
  }
  attr {
    key: "use_locking"
    value {
      b: true
    }
  }
  attr {
    key: "validate_shape"
    value {
      b: true
    }
  }
}
node {
  name: "save/Assign_295"
  op: "Assign"
  input: "p4_conv_1x1/BatchNorm/beta"
  input: "save/RestoreV2:295"
  attr {
    key: "T"
    value {
      type: DT_FLOAT
    }
  }
  attr {
    key: "_class"
    value {
      list {
        s: "loc:@p4_conv_1x1/BatchNorm/beta"
      }
    }
  }
  attr {
    key: "use_locking"
    value {
      b: true
    }
  }
  attr {
    key: "validate_shape"
    value {
      b: true
    }
  }
}
node {
  name: "save/Assign_296"
  op: "Assign"
  input: "p4_conv_1x1/BatchNorm/gamma"
  input: "save/RestoreV2:296"
  attr {
    key: "T"
    value {
      type: DT_FLOAT
    }
  }
  attr {
    key: "_class"
    value {
      list {
        s: "loc:@p4_conv_1x1/BatchNorm/gamma"
      }
    }
  }
  attr {
    key: "use_locking"
    value {
      b: true
    }
  }
  attr {
    key: "validate_shape"
    value {
      b: true
    }
  }
}
node {
  name: "save/Assign_297"
  op: "Assign"
  input: "p4_conv_1x1/BatchNorm/moving_mean"
  input: "save/RestoreV2:297"
  attr {
    key: "T"
    value {
      type: DT_FLOAT
    }
  }
  attr {
    key: "_class"
    value {
      list {
        s: "loc:@p4_conv_1x1/BatchNorm/moving_mean"
      }
    }
  }
  attr {
    key: "use_locking"
    value {
      b: true
    }
  }
  attr {
    key: "validate_shape"
    value {
      b: true
    }
  }
}
node {
  name: "save/Assign_298"
  op: "Assign"
  input: "p4_conv_1x1/BatchNorm/moving_variance"
  input: "save/RestoreV2:298"
  attr {
    key: "T"
    value {
      type: DT_FLOAT
    }
  }
  attr {
    key: "_class"
    value {
      list {
        s: "loc:@p4_conv_1x1/BatchNorm/moving_variance"
      }
    }
  }
  attr {
    key: "use_locking"
    value {
      b: true
    }
  }
  attr {
    key: "validate_shape"
    value {
      b: true
    }
  }
}
node {
  name: "save/Assign_299"
  op: "Assign"
  input: "p4_conv_1x1/weights"
  input: "save/RestoreV2:299"
  attr {
    key: "T"
    value {
      type: DT_FLOAT
    }
  }
  attr {
    key: "_class"
    value {
      list {
        s: "loc:@p4_conv_1x1/weights"
      }
    }
  }
  attr {
    key: "use_locking"
    value {
      b: true
    }
  }
  attr {
    key: "validate_shape"
    value {
      b: true
    }
  }
}
node {
  name: "save/Assign_300"
  op: "Assign"
  input: "p4_upsample/Conv2d_transpose/BatchNorm/beta"
  input: "save/RestoreV2:300"
  attr {
    key: "T"
    value {
      type: DT_FLOAT
    }
  }
  attr {
    key: "_class"
    value {
      list {
        s: "loc:@p4_upsample/Conv2d_transpose/BatchNorm/beta"
      }
    }
  }
  attr {
    key: "use_locking"
    value {
      b: true
    }
  }
  attr {
    key: "validate_shape"
    value {
      b: true
    }
  }
}
node {
  name: "save/Assign_301"
  op: "Assign"
  input: "p4_upsample/Conv2d_transpose/BatchNorm/gamma"
  input: "save/RestoreV2:301"
  attr {
    key: "T"
    value {
      type: DT_FLOAT
    }
  }
  attr {
    key: "_class"
    value {
      list {
        s: "loc:@p4_upsample/Conv2d_transpose/BatchNorm/gamma"
      }
    }
  }
  attr {
    key: "use_locking"
    value {
      b: true
    }
  }
  attr {
    key: "validate_shape"
    value {
      b: true
    }
  }
}
node {
  name: "save/Assign_302"
  op: "Assign"
  input: "p4_upsample/Conv2d_transpose/BatchNorm/moving_mean"
  input: "save/RestoreV2:302"
  attr {
    key: "T"
    value {
      type: DT_FLOAT
    }
  }
  attr {
    key: "_class"
    value {
      list {
        s: "loc:@p4_upsample/Conv2d_transpose/BatchNorm/moving_mean"
      }
    }
  }
  attr {
    key: "use_locking"
    value {
      b: true
    }
  }
  attr {
    key: "validate_shape"
    value {
      b: true
    }
  }
}
node {
  name: "save/Assign_303"
  op: "Assign"
  input: "p4_upsample/Conv2d_transpose/BatchNorm/moving_variance"
  input: "save/RestoreV2:303"
  attr {
    key: "T"
    value {
      type: DT_FLOAT
    }
  }
  attr {
    key: "_class"
    value {
      list {
        s: "loc:@p4_upsample/Conv2d_transpose/BatchNorm/moving_variance"
      }
    }
  }
  attr {
    key: "use_locking"
    value {
      b: true
    }
  }
  attr {
    key: "validate_shape"
    value {
      b: true
    }
  }
}
node {
  name: "save/Assign_304"
  op: "Assign"
  input: "p4_upsample/Conv2d_transpose/weights"
  input: "save/RestoreV2:304"
  attr {
    key: "T"
    value {
      type: DT_FLOAT
    }
  }
  attr {
    key: "_class"
    value {
      list {
        s: "loc:@p4_upsample/Conv2d_transpose/weights"
      }
    }
  }
  attr {
    key: "use_locking"
    value {
      b: true
    }
  }
  attr {
    key: "validate_shape"
    value {
      b: true
    }
  }
}
node {
  name: "save/Assign_305"
  op: "Assign"
  input: "p5_conv_1x1/BatchNorm/beta"
  input: "save/RestoreV2:305"
  attr {
    key: "T"
    value {
      type: DT_FLOAT
    }
  }
  attr {
    key: "_class"
    value {
      list {
        s: "loc:@p5_conv_1x1/BatchNorm/beta"
      }
    }
  }
  attr {
    key: "use_locking"
    value {
      b: true
    }
  }
  attr {
    key: "validate_shape"
    value {
      b: true
    }
  }
}
node {
  name: "save/Assign_306"
  op: "Assign"
  input: "p5_conv_1x1/BatchNorm/gamma"
  input: "save/RestoreV2:306"
  attr {
    key: "T"
    value {
      type: DT_FLOAT
    }
  }
  attr {
    key: "_class"
    value {
      list {
        s: "loc:@p5_conv_1x1/BatchNorm/gamma"
      }
    }
  }
  attr {
    key: "use_locking"
    value {
      b: true
    }
  }
  attr {
    key: "validate_shape"
    value {
      b: true
    }
  }
}
node {
  name: "save/Assign_307"
  op: "Assign"
  input: "p5_conv_1x1/BatchNorm/moving_mean"
  input: "save/RestoreV2:307"
  attr {
    key: "T"
    value {
      type: DT_FLOAT
    }
  }
  attr {
    key: "_class"
    value {
      list {
        s: "loc:@p5_conv_1x1/BatchNorm/moving_mean"
      }
    }
  }
  attr {
    key: "use_locking"
    value {
      b: true
    }
  }
  attr {
    key: "validate_shape"
    value {
      b: true
    }
  }
}
node {
  name: "save/Assign_308"
  op: "Assign"
  input: "p5_conv_1x1/BatchNorm/moving_variance"
  input: "save/RestoreV2:308"
  attr {
    key: "T"
    value {
      type: DT_FLOAT
    }
  }
  attr {
    key: "_class"
    value {
      list {
        s: "loc:@p5_conv_1x1/BatchNorm/moving_variance"
      }
    }
  }
  attr {
    key: "use_locking"
    value {
      b: true
    }
  }
  attr {
    key: "validate_shape"
    value {
      b: true
    }
  }
}
node {
  name: "save/Assign_309"
  op: "Assign"
  input: "p5_conv_1x1/weights"
  input: "save/RestoreV2:309"
  attr {
    key: "T"
    value {
      type: DT_FLOAT
    }
  }
  attr {
    key: "_class"
    value {
      list {
        s: "loc:@p5_conv_1x1/weights"
      }
    }
  }
  attr {
    key: "use_locking"
    value {
      b: true
    }
  }
  attr {
    key: "validate_shape"
    value {
      b: true
    }
  }
}
node {
  name: "save/Assign_310"
  op: "Assign"
  input: "p5_upsample/Conv2d_transpose/BatchNorm/beta"
  input: "save/RestoreV2:310"
  attr {
    key: "T"
    value {
      type: DT_FLOAT
    }
  }
  attr {
    key: "_class"
    value {
      list {
        s: "loc:@p5_upsample/Conv2d_transpose/BatchNorm/beta"
      }
    }
  }
  attr {
    key: "use_locking"
    value {
      b: true
    }
  }
  attr {
    key: "validate_shape"
    value {
      b: true
    }
  }
}
node {
  name: "save/Assign_311"
  op: "Assign"
  input: "p5_upsample/Conv2d_transpose/BatchNorm/gamma"
  input: "save/RestoreV2:311"
  attr {
    key: "T"
    value {
      type: DT_FLOAT
    }
  }
  attr {
    key: "_class"
    value {
      list {
        s: "loc:@p5_upsample/Conv2d_transpose/BatchNorm/gamma"
      }
    }
  }
  attr {
    key: "use_locking"
    value {
      b: true
    }
  }
  attr {
    key: "validate_shape"
    value {
      b: true
    }
  }
}
node {
  name: "save/Assign_312"
  op: "Assign"
  input: "p5_upsample/Conv2d_transpose/BatchNorm/moving_mean"
  input: "save/RestoreV2:312"
  attr {
    key: "T"
    value {
      type: DT_FLOAT
    }
  }
  attr {
    key: "_class"
    value {
      list {
        s: "loc:@p5_upsample/Conv2d_transpose/BatchNorm/moving_mean"
      }
    }
  }
  attr {
    key: "use_locking"
    value {
      b: true
    }
  }
  attr {
    key: "validate_shape"
    value {
      b: true
    }
  }
}
node {
  name: "save/Assign_313"
  op: "Assign"
  input: "p5_upsample/Conv2d_transpose/BatchNorm/moving_variance"
  input: "save/RestoreV2:313"
  attr {
    key: "T"
    value {
      type: DT_FLOAT
    }
  }
  attr {
    key: "_class"
    value {
      list {
        s: "loc:@p5_upsample/Conv2d_transpose/BatchNorm/moving_variance"
      }
    }
  }
  attr {
    key: "use_locking"
    value {
      b: true
    }
  }
  attr {
    key: "validate_shape"
    value {
      b: true
    }
  }
}
node {
  name: "save/Assign_314"
  op: "Assign"
  input: "p5_upsample/Conv2d_transpose/weights"
  input: "save/RestoreV2:314"
  attr {
    key: "T"
    value {
      type: DT_FLOAT
    }
  }
  attr {
    key: "_class"
    value {
      list {
        s: "loc:@p5_upsample/Conv2d_transpose/weights"
      }
    }
  }
  attr {
    key: "use_locking"
    value {
      b: true
    }
  }
  attr {
    key: "validate_shape"
    value {
      b: true
    }
  }
}
node {
  name: "save/Assign_315"
  op: "Assign"
  input: "p6_conv_1x1/BatchNorm/beta"
  input: "save/RestoreV2:315"
  attr {
    key: "T"
    value {
      type: DT_FLOAT
    }
  }
  attr {
    key: "_class"
    value {
      list {
        s: "loc:@p6_conv_1x1/BatchNorm/beta"
      }
    }
  }
  attr {
    key: "use_locking"
    value {
      b: true
    }
  }
  attr {
    key: "validate_shape"
    value {
      b: true
    }
  }
}
node {
  name: "save/Assign_316"
  op: "Assign"
  input: "p6_conv_1x1/BatchNorm/gamma"
  input: "save/RestoreV2:316"
  attr {
    key: "T"
    value {
      type: DT_FLOAT
    }
  }
  attr {
    key: "_class"
    value {
      list {
        s: "loc:@p6_conv_1x1/BatchNorm/gamma"
      }
    }
  }
  attr {
    key: "use_locking"
    value {
      b: true
    }
  }
  attr {
    key: "validate_shape"
    value {
      b: true
    }
  }
}
node {
  name: "save/Assign_317"
  op: "Assign"
  input: "p6_conv_1x1/BatchNorm/moving_mean"
  input: "save/RestoreV2:317"
  attr {
    key: "T"
    value {
      type: DT_FLOAT
    }
  }
  attr {
    key: "_class"
    value {
      list {
        s: "loc:@p6_conv_1x1/BatchNorm/moving_mean"
      }
    }
  }
  attr {
    key: "use_locking"
    value {
      b: true
    }
  }
  attr {
    key: "validate_shape"
    value {
      b: true
    }
  }
}
node {
  name: "save/Assign_318"
  op: "Assign"
  input: "p6_conv_1x1/BatchNorm/moving_variance"
  input: "save/RestoreV2:318"
  attr {
    key: "T"
    value {
      type: DT_FLOAT
    }
  }
  attr {
    key: "_class"
    value {
      list {
        s: "loc:@p6_conv_1x1/BatchNorm/moving_variance"
      }
    }
  }
  attr {
    key: "use_locking"
    value {
      b: true
    }
  }
  attr {
    key: "validate_shape"
    value {
      b: true
    }
  }
}
node {
  name: "save/Assign_319"
  op: "Assign"
  input: "p6_conv_1x1/weights"
  input: "save/RestoreV2:319"
  attr {
    key: "T"
    value {
      type: DT_FLOAT
    }
  }
  attr {
    key: "_class"
    value {
      list {
        s: "loc:@p6_conv_1x1/weights"
      }
    }
  }
  attr {
    key: "use_locking"
    value {
      b: true
    }
  }
  attr {
    key: "validate_shape"
    value {
      b: true
    }
  }
}
node {
  name: "save/Assign_320"
  op: "Assign"
  input: "pred_class/biases"
  input: "save/RestoreV2:320"
  attr {
    key: "T"
    value {
      type: DT_FLOAT
    }
  }
  attr {
    key: "_class"
    value {
      list {
        s: "loc:@pred_class/biases"
      }
    }
  }
  attr {
    key: "use_locking"
    value {
      b: true
    }
  }
  attr {
    key: "validate_shape"
    value {
      b: true
    }
  }
}
node {
  name: "save/Assign_321"
  op: "Assign"
  input: "pred_class/weights"
  input: "save/RestoreV2:321"
  attr {
    key: "T"
    value {
      type: DT_FLOAT
    }
  }
  attr {
    key: "_class"
    value {
      list {
        s: "loc:@pred_class/weights"
      }
    }
  }
  attr {
    key: "use_locking"
    value {
      b: true
    }
  }
  attr {
    key: "validate_shape"
    value {
      b: true
    }
  }
}
node {
  name: "save/Assign_322"
  op: "Assign"
  input: "pred_landmark/biases"
  input: "save/RestoreV2:322"
  attr {
    key: "T"
    value {
      type: DT_FLOAT
    }
  }
  attr {
    key: "_class"
    value {
      list {
        s: "loc:@pred_landmark/biases"
      }
    }
  }
  attr {
    key: "use_locking"
    value {
      b: true
    }
  }
  attr {
    key: "validate_shape"
    value {
      b: true
    }
  }
}
node {
  name: "save/Assign_323"
  op: "Assign"
  input: "pred_landmark/weights"
  input: "save/RestoreV2:323"
  attr {
    key: "T"
    value {
      type: DT_FLOAT
    }
  }
  attr {
    key: "_class"
    value {
      list {
        s: "loc:@pred_landmark/weights"
      }
    }
  }
  attr {
    key: "use_locking"
    value {
      b: true
    }
  }
  attr {
    key: "validate_shape"
    value {
      b: true
    }
  }
}
node {
  name: "save/Assign_324"
  op: "Assign"
  input: "pred_offset/biases"
  input: "save/RestoreV2:324"
  attr {
    key: "T"
    value {
      type: DT_FLOAT
    }
  }
  attr {
    key: "_class"
    value {
      list {
        s: "loc:@pred_offset/biases"
      }
    }
  }
  attr {
    key: "use_locking"
    value {
      b: true
    }
  }
  attr {
    key: "validate_shape"
    value {
      b: true
    }
  }
}
node {
  name: "save/Assign_325"
  op: "Assign"
  input: "pred_offset/weights"
  input: "save/RestoreV2:325"
  attr {
    key: "T"
    value {
      type: DT_FLOAT
    }
  }
  attr {
    key: "_class"
    value {
      list {
        s: "loc:@pred_offset/weights"
      }
    }
  }
  attr {
    key: "use_locking"
    value {
      b: true
    }
  }
  attr {
    key: "validate_shape"
    value {
      b: true
    }
  }
}
node {
  name: "save/Assign_326"
  op: "Assign"
  input: "pred_scale/biases"
  input: "save/RestoreV2:326"
  attr {
    key: "T"
    value {
      type: DT_FLOAT
    }
  }
  attr {
    key: "_class"
    value {
      list {
        s: "loc:@pred_scale/biases"
      }
    }
  }
  attr {
    key: "use_locking"
    value {
      b: true
    }
  }
  attr {
    key: "validate_shape"
    value {
      b: true
    }
  }
}
node {
  name: "save/Assign_327"
  op: "Assign"
  input: "pred_scale/weights"
  input: "save/RestoreV2:327"
  attr {
    key: "T"
    value {
      type: DT_FLOAT
    }
  }
  attr {
    key: "_class"
    value {
      list {
        s: "loc:@pred_scale/weights"
      }
    }
  }
  attr {
    key: "use_locking"
    value {
      b: true
    }
  }
  attr {
    key: "validate_shape"
    value {
      b: true
    }
  }
}
node {
  name: "save/restore_all"
  op: "NoOp"
  input: "^save/Assign"
  input: "^save/Assign_1"
  input: "^save/Assign_10"
  input: "^save/Assign_100"
  input: "^save/Assign_101"
  input: "^save/Assign_102"
  input: "^save/Assign_103"
  input: "^save/Assign_104"
  input: "^save/Assign_105"
  input: "^save/Assign_106"
  input: "^save/Assign_107"
  input: "^save/Assign_108"
  input: "^save/Assign_109"
  input: "^save/Assign_11"
  input: "^save/Assign_110"
  input: "^save/Assign_111"
  input: "^save/Assign_112"
  input: "^save/Assign_113"
  input: "^save/Assign_114"
  input: "^save/Assign_115"
  input: "^save/Assign_116"
  input: "^save/Assign_117"
  input: "^save/Assign_118"
  input: "^save/Assign_119"
  input: "^save/Assign_12"
  input: "^save/Assign_120"
  input: "^save/Assign_121"
  input: "^save/Assign_122"
  input: "^save/Assign_123"
  input: "^save/Assign_124"
  input: "^save/Assign_125"
  input: "^save/Assign_126"
  input: "^save/Assign_127"
  input: "^save/Assign_128"
  input: "^save/Assign_129"
  input: "^save/Assign_13"
  input: "^save/Assign_130"
  input: "^save/Assign_131"
  input: "^save/Assign_132"
  input: "^save/Assign_133"
  input: "^save/Assign_134"
  input: "^save/Assign_135"
  input: "^save/Assign_136"
  input: "^save/Assign_137"
  input: "^save/Assign_138"
  input: "^save/Assign_139"
  input: "^save/Assign_14"
  input: "^save/Assign_140"
  input: "^save/Assign_141"
  input: "^save/Assign_142"
  input: "^save/Assign_143"
  input: "^save/Assign_144"
  input: "^save/Assign_145"
  input: "^save/Assign_146"
  input: "^save/Assign_147"
  input: "^save/Assign_148"
  input: "^save/Assign_149"
  input: "^save/Assign_15"
  input: "^save/Assign_150"
  input: "^save/Assign_151"
  input: "^save/Assign_152"
  input: "^save/Assign_153"
  input: "^save/Assign_154"
  input: "^save/Assign_155"
  input: "^save/Assign_156"
  input: "^save/Assign_157"
  input: "^save/Assign_158"
  input: "^save/Assign_159"
  input: "^save/Assign_16"
  input: "^save/Assign_160"
  input: "^save/Assign_161"
  input: "^save/Assign_162"
  input: "^save/Assign_163"
  input: "^save/Assign_164"
  input: "^save/Assign_165"
  input: "^save/Assign_166"
  input: "^save/Assign_167"
  input: "^save/Assign_168"
  input: "^save/Assign_169"
  input: "^save/Assign_17"
  input: "^save/Assign_170"
  input: "^save/Assign_171"
  input: "^save/Assign_172"
  input: "^save/Assign_173"
  input: "^save/Assign_174"
  input: "^save/Assign_175"
  input: "^save/Assign_176"
  input: "^save/Assign_177"
  input: "^save/Assign_178"
  input: "^save/Assign_179"
  input: "^save/Assign_18"
  input: "^save/Assign_180"
  input: "^save/Assign_181"
  input: "^save/Assign_182"
  input: "^save/Assign_183"
  input: "^save/Assign_184"
  input: "^save/Assign_185"
  input: "^save/Assign_186"
  input: "^save/Assign_187"
  input: "^save/Assign_188"
  input: "^save/Assign_189"
  input: "^save/Assign_19"
  input: "^save/Assign_190"
  input: "^save/Assign_191"
  input: "^save/Assign_192"
  input: "^save/Assign_193"
  input: "^save/Assign_194"
  input: "^save/Assign_195"
  input: "^save/Assign_196"
  input: "^save/Assign_197"
  input: "^save/Assign_198"
  input: "^save/Assign_199"
  input: "^save/Assign_2"
  input: "^save/Assign_20"
  input: "^save/Assign_200"
  input: "^save/Assign_201"
  input: "^save/Assign_202"
  input: "^save/Assign_203"
  input: "^save/Assign_204"
  input: "^save/Assign_205"
  input: "^save/Assign_206"
  input: "^save/Assign_207"
  input: "^save/Assign_208"
  input: "^save/Assign_209"
  input: "^save/Assign_21"
  input: "^save/Assign_210"
  input: "^save/Assign_211"
  input: "^save/Assign_212"
  input: "^save/Assign_213"
  input: "^save/Assign_214"
  input: "^save/Assign_215"
  input: "^save/Assign_216"
  input: "^save/Assign_217"
  input: "^save/Assign_218"
  input: "^save/Assign_219"
  input: "^save/Assign_22"
  input: "^save/Assign_220"
  input: "^save/Assign_221"
  input: "^save/Assign_222"
  input: "^save/Assign_223"
  input: "^save/Assign_224"
  input: "^save/Assign_225"
  input: "^save/Assign_226"
  input: "^save/Assign_227"
  input: "^save/Assign_228"
  input: "^save/Assign_229"
  input: "^save/Assign_23"
  input: "^save/Assign_230"
  input: "^save/Assign_231"
  input: "^save/Assign_232"
  input: "^save/Assign_233"
  input: "^save/Assign_234"
  input: "^save/Assign_235"
  input: "^save/Assign_236"
  input: "^save/Assign_237"
  input: "^save/Assign_238"
  input: "^save/Assign_239"
  input: "^save/Assign_24"
  input: "^save/Assign_240"
  input: "^save/Assign_241"
  input: "^save/Assign_242"
  input: "^save/Assign_243"
  input: "^save/Assign_244"
  input: "^save/Assign_245"
  input: "^save/Assign_246"
  input: "^save/Assign_247"
  input: "^save/Assign_248"
  input: "^save/Assign_249"
  input: "^save/Assign_25"
  input: "^save/Assign_250"
  input: "^save/Assign_251"
  input: "^save/Assign_252"
  input: "^save/Assign_253"
  input: "^save/Assign_254"
  input: "^save/Assign_255"
  input: "^save/Assign_256"
  input: "^save/Assign_257"
  input: "^save/Assign_258"
  input: "^save/Assign_259"
  input: "^save/Assign_26"
  input: "^save/Assign_260"
  input: "^save/Assign_261"
  input: "^save/Assign_262"
  input: "^save/Assign_263"
  input: "^save/Assign_264"
  input: "^save/Assign_265"
  input: "^save/Assign_266"
  input: "^save/Assign_267"
  input: "^save/Assign_268"
  input: "^save/Assign_269"
  input: "^save/Assign_27"
  input: "^save/Assign_270"
  input: "^save/Assign_271"
  input: "^save/Assign_272"
  input: "^save/Assign_273"
  input: "^save/Assign_274"
  input: "^save/Assign_275"
  input: "^save/Assign_276"
  input: "^save/Assign_277"
  input: "^save/Assign_278"
  input: "^save/Assign_279"
  input: "^save/Assign_28"
  input: "^save/Assign_280"
  input: "^save/Assign_281"
  input: "^save/Assign_282"
  input: "^save/Assign_283"
  input: "^save/Assign_284"
  input: "^save/Assign_285"
  input: "^save/Assign_286"
  input: "^save/Assign_287"
  input: "^save/Assign_288"
  input: "^save/Assign_289"
  input: "^save/Assign_29"
  input: "^save/Assign_290"
  input: "^save/Assign_291"
  input: "^save/Assign_292"
  input: "^save/Assign_293"
  input: "^save/Assign_294"
  input: "^save/Assign_295"
  input: "^save/Assign_296"
  input: "^save/Assign_297"
  input: "^save/Assign_298"
  input: "^save/Assign_299"
  input: "^save/Assign_3"
  input: "^save/Assign_30"
  input: "^save/Assign_300"
  input: "^save/Assign_301"
  input: "^save/Assign_302"
  input: "^save/Assign_303"
  input: "^save/Assign_304"
  input: "^save/Assign_305"
  input: "^save/Assign_306"
  input: "^save/Assign_307"
  input: "^save/Assign_308"
  input: "^save/Assign_309"
  input: "^save/Assign_31"
  input: "^save/Assign_310"
  input: "^save/Assign_311"
  input: "^save/Assign_312"
  input: "^save/Assign_313"
  input: "^save/Assign_314"
  input: "^save/Assign_315"
  input: "^save/Assign_316"
  input: "^save/Assign_317"
  input: "^save/Assign_318"
  input: "^save/Assign_319"
  input: "^save/Assign_32"
  input: "^save/Assign_320"
  input: "^save/Assign_321"
  input: "^save/Assign_322"
  input: "^save/Assign_323"
  input: "^save/Assign_324"
  input: "^save/Assign_325"
  input: "^save/Assign_326"
  input: "^save/Assign_327"
  input: "^save/Assign_33"
  input: "^save/Assign_34"
  input: "^save/Assign_35"
  input: "^save/Assign_36"
  input: "^save/Assign_37"
  input: "^save/Assign_38"
  input: "^save/Assign_39"
  input: "^save/Assign_4"
  input: "^save/Assign_40"
  input: "^save/Assign_41"
  input: "^save/Assign_42"
  input: "^save/Assign_43"
  input: "^save/Assign_44"
  input: "^save/Assign_45"
  input: "^save/Assign_46"
  input: "^save/Assign_47"
  input: "^save/Assign_48"
  input: "^save/Assign_49"
  input: "^save/Assign_5"
  input: "^save/Assign_50"
  input: "^save/Assign_51"
  input: "^save/Assign_52"
  input: "^save/Assign_53"
  input: "^save/Assign_54"
  input: "^save/Assign_55"
  input: "^save/Assign_56"
  input: "^save/Assign_57"
  input: "^save/Assign_58"
  input: "^save/Assign_59"
  input: "^save/Assign_6"
  input: "^save/Assign_60"
  input: "^save/Assign_61"
  input: "^save/Assign_62"
  input: "^save/Assign_63"
  input: "^save/Assign_64"
  input: "^save/Assign_65"
  input: "^save/Assign_66"
  input: "^save/Assign_67"
  input: "^save/Assign_68"
  input: "^save/Assign_69"
  input: "^save/Assign_7"
  input: "^save/Assign_70"
  input: "^save/Assign_71"
  input: "^save/Assign_72"
  input: "^save/Assign_73"
  input: "^save/Assign_74"
  input: "^save/Assign_75"
  input: "^save/Assign_76"
  input: "^save/Assign_77"
  input: "^save/Assign_78"
  input: "^save/Assign_79"
  input: "^save/Assign_8"
  input: "^save/Assign_80"
  input: "^save/Assign_81"
  input: "^save/Assign_82"
  input: "^save/Assign_83"
  input: "^save/Assign_84"
  input: "^save/Assign_85"
  input: "^save/Assign_86"
  input: "^save/Assign_87"
  input: "^save/Assign_88"
  input: "^save/Assign_89"
  input: "^save/Assign_9"
  input: "^save/Assign_90"
  input: "^save/Assign_91"
  input: "^save/Assign_92"
  input: "^save/Assign_93"
  input: "^save/Assign_94"
  input: "^save/Assign_95"
  input: "^save/Assign_96"
  input: "^save/Assign_97"
  input: "^save/Assign_98"
  input: "^save/Assign_99"
}
versions {
  producer: 134
}
